Tables/DQN.pt (torch, 19031 bytes, 6 tensors)

fc1.weight f4 [64, 12]
0	0x3e4aa335	0.19788821
1	0x3f7b28eb	0.9810931
2	0xbdb566ce	-0.08857499
3	0xc00730bd	-2.1123497
4	0x3f432fb9	0.76244694
5	0x3f9aafcf	1.2084903
6	0x3eaa8994	0.3330809
7	0x3f5055db	0.81381005
8	0xbf5c81c8	-0.8613553
9	0xc0402e61	-3.0028307
10	0x3f3d74dc	0.7400644
11	0x3f9fa325	1.2471663
12	0xbf34f4b1	-0.7068587
13	0xbf275e47	-0.6537823
14	0xbf49dbff	-0.7885131
15	0x3d37ea76	0.044901334
16	0x3f8d0ffd	1.1020504
17	0x3f87370c	1.0563674
18	0xbe701106	-0.23443994
19	0x3dd3efaf	0.103484504
20	0x3eadf2d7	0.33974335
21	0x3fcdc746	1.6076438
22	0x3f25752d	0.6463192
23	0x3fd48ec4	1.6606069
24	0x3e238298	0.15967786
25	0xc00ced06	-2.2019668
26	0x3fa8e058	1.3193464
27	0x3f36d679	0.7142101
28	0xbf5abab2	-0.85441124
29	0xbebcf85b	-0.3690823
30	0x3ead4dad	0.33848324
31	0xc064ccc0	-3.574997
32	0x3fb19b5a	1.3875535
33	0x3f4338a1	0.76258284
34	0xbf58c80e	-0.8468026
35	0xbc8c0e0a	-0.017096538
36	0xbd7c955e	-0.061665885
37	0x3f7c56fd	0.98570234
38	0xbf434ce3	-0.76289195
39	0x3f9dc515	1.232577
40	0xbe3904d0	-0.18068242
41	0xbf8b6ed7	-1.0893201
42	0xc00a9777	-2.1654947
43	0xbf3c1b00	-0.734787
44	0x3e246cf5	0.16057189
45	0x3fb5afdc	1.4194293
46	0xbecc779c	-0.39935005
47	0xbfb0a5d2	-1.3800604
48	0x3f6b96f2	0.920272
49	0xbcf9527c	-0.03043484
50	0xbf83b573	-1.0289749
51	0xc01a4464	-2.4104242
52	0xbf1f357f	-0.62191004
53	0xbec6599d	-0.38740245
54	0xbda62f0d	-0.08114443
55	0x3ef52e94	0.478871
56	0xbed20b28	-0.41024137
57	0xbf2f0c69	-0.6837831
58	0x3fb5ffa0	1.4218636
59	0x3ff29132	1.895056
60	0xbea52732	-0.32256466
61	0xbf6a1d25	-0.9145072
62	0x3f20e9ab	0.6285655
63	0xbf9faa8f	-1.2473925
64	0xbf93e3df	-1.1553916
65	0x3f9a41cf	1.2051333
66	0x3fb033ab	1.3765768
67	0x3ec47f4b	0.38378367
68	0xbf54bc07	-0.83099407
69	0x3f11dee9	0.5698076
70	0x3f89d1ac	1.0767112
71	0x3f011cdb	0.50434655
72	0x3f4d8054	0.8027394
73	0xbe2d4ba8	-0.16923392
74	0x3f73b9fc	0.95205665
75	0xbf01d813	-0.5072033
76	0x3f98443f	1.1895827
77	0x3ea1b4e6	0.31583327
78	0x3f65df2e	0.8979367
79	0x3e260b7d	0.1621532
80	0xc0536a06	-3.3033462
81	0x3f8d1a3f	1.1023635
82	0xbfe2bcbb	-1.7713846
83	0xbeb268aa	-0.34845477
84	0x3f905d84	1.1278539
85	0x3f8aa114	1.0830407
86	0x3eac1ee3	0.33617315
87	0x3f7dc695	0.9913114
88	0xbfbc52b3	-1.4712738
89	0xbfe812ea	-1.8130772
90	0x3fa005e9	1.2501804
91	0x3f5a8ae6	0.8536819
92	0x3f7b941d	0.9827288
93	0xc025f0fb	-2.5928333
94	0xbf80c759	-1.0060836
95	0xbf29fd9e	-0.66402614
96	0xbe7883bb	-0.24269001
97	0xbe1bb93a	-0.15207377
98	0xbe075edb	-0.13219778
99	0xc026cbfa	-2.6061997
100	0xbffd53c9	-1.9791194
101	0x3fbd2f4d	1.478006
102	0xbf3d5416	-0.7395643
103	0x3e9f280e	0.31085247
104	0xbf2405f1	-0.64071566
105	0x3fdf4bce	1.7445009
106	0xbee7f8d3	-0.45307025
107	0x3f415170	0.7551489
108	0xbeadcf1f	-0.33947083
109	0xbf0f47c8	-0.55968904
110	0x3ec3e97d	0.38264075
111	0x3eab1948	0.33417726
112	0xbf3cc896	-0.7374357
113	0x3f46705a	0.77515185
114	0xbf37c065	-0.71777946
115	0xbea94494	-0.33060133
116	0x3f9d9e39	1.2313911
117	0xc0364160	-2.8477402
118	0x3f0645e5	0.524504
119	0x3f6b7ba0	0.9198551
120	0x3f96ec09	1.1790782
121	0x3fbdb7f2	1.4821761
122	0x3fe1d092	1.7641776
123	0x3ee9ec78	0.45688224
124	0xbf97340e	-1.1812761
125	0xbf878fcd	-1.059076
126	0x3f79ca4d	0.9757431
127	0xbf6587f4	-0.89660573
128	0xc03d35a7	-2.9563997
129	0x3f8ef74c	1.1169219
130	0xbfcaef89	-1.585435
131	0xbf17910b	-0.59205693
132	0xbfb72d8a	-1.4310772
133	0xc01943d1	-2.3947642
134	0xbeddd28a	-0.4332469
135	0x3f0bff33	0.5468628
136	0xbf220d92	-0.63301957
137	0x3fd4255e	1.6573904
138	0xbde5a1d8	-0.1121251
139	0xbe061789	-0.13094915
140	0x3fb84715	1.4396693
141	0x3fd62434	1.6729798
142	0xbf6999ba	-0.91250193
143	0xbd18c303	-0.037295353
144	0x3e440b01	0.19144823
145	0xbf9c1c0c	-1.2196059
146	0x3efb477b	0.49077973
147	0xbb9a0d6b	-0.0047013066
148	0x3f06b6d6	0.52622736
149	0xc011a114	-2.2754564
150	0xc04f5de8	-3.2401066
151	0x3f467e25	0.7753623
152	0xbf244e7f	-0.64182276
153	0x3fe0c88b	1.7561201
154	0x3faae542	1.3351214
155	0xbe41e797	-0.18936001
156	0xbf72e480	-0.94879913
157	0x3ec55527	0.3854153
158	0x3eea7e70	0.4579959
159	0x3e1cb44e	0.15303156
160	0x3ec6bf25	0.38817707
161	0xbdafecc8	-0.08590084
162	0x3dccdadd	0.10002682
163	0x3ee80089	0.45312908
164	0x3f21c06c	0.6318424
165	0xbd806bcb	-0.0627056
166	0x3fdca7b5	1.723868
167	0xbf966c4d	-1.1751801
168	0x3f0ab393	0.5418026
169	0x3fbda731	1.4816648
170	0x400887ac	2.1332808
171	0x3eec777a	0.46184903
172	0x3f9a87f9	1.2072746
173	0xbf7639b1	-0.9618178
174	0xbf0c5b4b	-0.548268
175	0xbff103cc	-1.8829284
176	0xbfd94fc8	-1.6977472
177	0xbf0e2435	-0.55524
178	0x3fa429dc	1.2825274
179	0x3f45f652	0.7732898
180	0x3f948a66	1.1604736
181	0x3f232618	0.6373
182	0x3f523a65	0.82120353
183	0xbef3ee79	-0.47642878
184	0x3dc9afd6	0.09847991
185	0xbf73c4f3	-0.95222396
186	0xbedb1515	-0.42789522
187	0x3f8c191a	1.094516
188	0x3fbdd364	1.4830136
189	0xbff409a5	-1.9065443
190	0x3eb4e899	0.35333708
191	0xbfce61a9	-1.6123554
192	0xbe727050	-0.23675656
193	0xbddc0d62	-0.1074474
194	0xbe5f8582	-0.21828273
195	0xbdaf79ac	-0.08568129
196	0xbe1ea789	-0.15493597
197	0xbdfe8908	-0.124284804
198	0xbdaf0df2	-0.08547582
199	0xbe006ef1	-0.12542321
200	0xbe188213	-0.1489337
201	0xbb889200	-0.004167795
202	0x3d368a60	0.04456556
203	0xbd91473e	-0.070936665
204	0xbed715e7	-0.42008898
205	0x3f9b4d57	1.2132977
206	0x3ebe369f	0.37151048
207	0x3f887022	1.065922
208	0xbf309307	-0.68974346
209	0x3cdaa898	0.02669172
210	0x3f30e6ad	0.69101983
211	0x3f1d4c81	0.6144486
212	0xbfed1df2	-1.8524764
213	0x3f8f5f52	1.1200964
214	0x3f3d41e7	0.73928684
215	0xbfa20f8b	-1.2660993
216	0x3eb649ea	0.35603267
217	0xbfe27a07	-1.769349
218	0x3f478e37	0.7795138
219	0x3fe66c33	1.800177
220	0xbd9fecbd	-0.07808826
221	0xbef8cb57	-0.48592636
222	0xbf815ca2	-1.0106394
223	0xbfb10320	-1.3829079
224	0x3f58d95c	0.84706664
225	0x3fc1f8af	1.5154017
226	0x3f46fc97	0.7772917
227	0xbd3ab842	-0.04558588
228	0xbf8a0b70	-1.078474
229	0xbfbb02d3	-1.4610237
230	0x3ef234ba	0.47305852
231	0xbfd4620f	-1.6592425
232	0x3f8231dc	1.0171466
233	0xbedeac25	-0.4349071
234	0x3f818a40	1.0120316
235	0xbfc442c4	-1.5332875
236	0x3fec579c	1.8464236
237	0xbf1b5e58	-0.6069083
238	0x3e57e7cc	0.21084517
239	0xbf62b7fe	-0.88562
240	0x3eb8979e	0.36053175
241	0x3f48d2a4	0.7844641
242	0x3f269a28	0.65078974
243	0xbed82d0e	-0.42221874
244	0x3f795150	0.973897
245	0x3f8dffbc	1.1093669
246	0x3e2696bf	0.16268443
247	0xbf9dbdc1	-1.2323533
248	0xbf4030eb	-0.7507464
249	0xbfc894d0	-1.5670414
250	0xbc97576d	-0.018474305
251	0xbfa87cc5	-1.3163077
252	0xbfb19c01	-1.3875734
253	0x3fd3e0dc	1.6552997
254	0xbe5ff21d	-0.21869703
255	0x3f342e79	0.7038341

fc1.bias f4 [64]
0	0xbeda62d3	-0.42653522
1	0xbf84cb1b	-1.0374483
2	0xbd0c3a86	-0.0342355
3	0xbf45e69c	-0.77305007
4	0xbf78d33b	-0.9719731
5	0xbfc5d044	-1.5454183
6	0x3ec5a457	0.38601944
7	0x3f490313	0.78520316
8	0xbf81a7b9	-1.012931
9	0xbf381269	-0.7190309
10	0x3ef8b29e	0.48573774
11	0xbf8e942b	-1.1138967
12	0x3f0e551a	0.55598605
13	0x3e84a783	0.2590905
14	0xbf011f7c	-0.50438666
15	0x3e9e6222	0.30934244
16	0xbe831e54	-0.25609076
17	0x3df018d1	0.11723483
18	0xbeba95ca	-0.36442405
19	0xbf7f4828	-0.99719477
20	0x3d61f6f8	0.05516717
21	0x3eee4588	0.46537423
22	0x3f21edb3	0.63253325
23	0xbe229df5	-0.15880568
24	0xbf008191	-0.501977
25	0xbf2ad7c1	-0.66735464
26	0xbe5deec6	-0.21673116
27	0xbecbca01	-0.39802554
28	0xbe2f9c19	-0.1714939
29	0xbf49de49	-0.78854805
30	0xbea3ce10	-0.3199315
31	0xbef3c8ff	-0.47614285
32	0xbfcf04fa	-1.6173394
33	0xbf0cf45c	-0.5506036
34	0x3fb30ee7	1.3988923
35	0xbdf81e06	-0.121151015
36	0xbe37d945	-0.17953975
37	0xbe0f637f	-0.14002798
38	0xbe8a2393	-0.26980266
39	0xbf8f4eaf	-1.1195887
40	0x3f3e929f	0.74442476
41	0xbec12aa1	-0.37727836
42	0xbedc9998	-0.43085933
43	0xbfa19809	-1.2624522
44	0xbf549847	-0.83044857
45	0x3f3b7e9d	0.7324007
46	0x3f400abe	0.7501639
47	0xbea4dea0	-0.322011
48	0xbfb83c43	-1.439339
49	0xbede15d8	-0.4337604
50	0xbf4305d0	-0.76180744
51	0x3dc0e144	0.09417966
52	0x3f7cf447	0.9881024
53	0xbe2b8556	-0.16750082
54	0x3f50cb4a	0.81560194
55	0x3f1f4fa3	0.6223089
56	0x3dd55e31	0.10418356
57	0xbfd7488a	-1.6819012
58	0x3d09b627	0.03362098
59	0xbd9f8cf6	-0.07790558
60	0xbf461d1e	-0.7738818
61	0xbe951d1c	-0.2912377
62	0xbfcb118a	-1.5864727
63	0xbe867db1	-0.2626777

fc2.weight f4 [50, 64]
0	0x3ceedc4b	0.029157778
1	0xbeb5b4af	-0.35489413
2	0xbf3afd8e	-0.73043144
3	0x3fd9eaca	1.7024777
4	0xbf3f4ebe	-0.74729526
5	0xbfd777a7	-1.683339
6	0xbed34d62	-0.41269976
7	0x3eae1adc	0.34004867
8	0xbfab6bbc	-1.3392253
9	0xbede535f	-0.43422982
10	0xbf5c912b	-0.8615901
11	0x3f7dc296	0.9912504
12	0xc030087d	-2.750518
13	0x3f8befc7	1.0932549
14	0xbf87f7d3	-1.0622505
15	0xbebe3593	-0.3715025
16	0xbcad5290	-0.021157533
17	0xbf81c640	-1.0138626
18	0xbffa88ce	-1.9573
19	0xbfb0bdd6	-1.3807933
20	0xbf3aceea	-0.72971976
21	0x3e7153ba	0.23567095
22	0x3f4983ce	0.78716743
23	0xbd8a6dd8	-0.06759232
24	0x3f303e5c	0.6884515
25	0xbf71cfa0	-0.94457436
26	0xbdf41b7a	-0.11919303
27	0xbd901452	-0.07035126
28	0x4042210a	3.0332665
29	0xbf4ab7fd	-0.79186994
30	0x3d61b3bb	0.055103045
31	0xbf3af78b	-0.7303397
32	0x3f818066	1.0117309
33	0xbec49d5a	-0.384013
34	0xbf594f06	-0.84886205
35	0xbfb8be21	-1.4433023
36	0xbecf67a3	-0.40508756
37	0x3f459ea6	0.77195203
38	0xbd933d72	-0.07189454
39	0x3e7ca2ed	0.24671526
40	0x3fd10324	1.6329083
41	0xbefe8d26	-0.49717063
42	0xbfa37254	-1.2769265
43	0x3ec3cc8a	0.38241988
44	0xbfd088a6	-1.6291702
45	0xbfad5eb5	-1.3544527
46	0xbe4bc49a	-0.19899216
47	0xbfe1d180	-1.7642059
48	0xbc34879b	-0.011018659
49	0xbf32333c	-0.6960943
50	0x3f9e471b	1.236545
51	0x3f2b9760	0.67027855
52	0x4017d798	2.3725338
53	0xbe974972	-0.29548222
54	0xc00a1d0b	-2.1580226
55	0xbfd8e0fc	-1.694366
56	0xbf2e3368	-0.6804719
57	0xc0055494	-2.0832872
58	0xbfdf6c3a	-1.7454903
59	0x3f12b665	0.5730956
60	0xc01871dc	-2.3819494
61	0xc061e41a	-3.5295472
62	0x3f61e987	0.8824696
63	0xbe423607	-0.18965922
64	0x3c6a5ad0	0.014303878
65	0xbddd307b	-0.108002625
66	0xbdf267e1	-0.118362196
67	0xbe0d4713	-0.13796644
68	0xbde5ac0f	-0.11214458
69	0xbdbac017	-0.091186695
70	0x3d32f107	0.043686893
71	0x3d196798	0.03745231
72	0xbd5dac23	-0.05411924
73	0xbe1eb619	-0.15499152
74	0x3c0395a3	0.008031282
75	0xbd8e4d8a	-0.06948383
76	0xbe167ebc	-0.14696783
77	0xbdff5607	-0.1246758
78	0xbdfa7982	-0.12230207
79	0xbd80a697	-0.062817745
80	0xbd41e700	-0.04733944
81	0xbdbf9500	-0.09354591
82	0xbc690bc7	-0.014223999
83	0x3d1779a0	0.036981225
84	0xbe19bac4	-0.15012652
85	0xbdd490b3	-0.10379162
86	0xbe274340	-0.16334248
87	0x3cf327f0	0.02968213
88	0xbdd8d661	-0.105877645
89	0xbd867729	-0.06565697
90	0xbdad7586	-0.084696814
91	0x3d2b5970	0.04183334
92	0x3d6b9a14	0.057519987
93	0xbd029cb2	-0.031887718
94	0x3bc84840	0.0061121285
95	0xbd60dcb6	-0.054897986
96	0xbcf1f271	-0.02953455
97	0x3d69bdf0	0.057065904
98	0xbdb389eb	-0.0876654
99	0x3c27f436	0.0102510955
100	0xbd50e97f	-0.05100393
101	0xbdf417a5	-0.11918572
102	0x3d861142	0.065462604
103	0x3d583813	0.05278785
104	0xbd3ea599	-0.046544645
105	0x3d08d1d4	0.033403233
106	0x3d681d90	0.056668818
107	0xbd605b26	-0.054774426
108	0xbdd2dc48	-0.102959216
109	0xbe2e2214	-0.17005187
110	0xbe2a9b68	-0.16660845
111	0x3d2233ca	0.03960017
112	0xbe1dad20	-0.15398073
113	0xbdb6d946	-0.0892816
114	0x3d585804	0.052818313
115	0x3c661eab	0.014045398
116	0xbcb62021	-0.022232117
117	0xbc5b2470	-0.013375387
118	0xbe25e1fa	-0.16199484
119	0x3c82d6d0	0.015971571
120	0xbc0a88ea	-0.008455494
121	0xbe0098fa	-0.12558356
122	0xbe1e361c	-0.15450329
123	0xbd192296	-0.0373865
124	0xbcdbc924	-0.02682931
125	0x3d1d75e2	0.0384425
126	0x3c0563a8	0.008141436
127	0xbd5cb522	-0.05388368
128	0x3e4e9447	0.20173751
129	0x3e05265a	0.13002911
130	0x3e01e179	0.12683667
131	0x3f83072c	1.0236564
132	0x3ec98aa7	0.39363596
133	0xbf3e866b	-0.74423856
134	0x3dce9fd7	0.10089081
135	0xbf4da3e0	-0.8032818
136	0xbecfd34e	-0.405909
137	0x3f903371	1.1265699
138	0xbfbec071	-1.4902478
139	0x3f6d44a5	0.9268287
140	0xbf01854b	-0.50594014
141	0xbf5f06b5	-0.8711961
142	0xc03d77c6	-2.9604354
143	0x3f2a31b4	0.6648209
144	0x3d643304	0.055712715
145	0xbecedc6b	-0.4040254
146	0xbf0d5765	-0.5521148
147	0xbeb9bea6	-0.36278266
148	0x3e59a992	0.21256092
149	0xbf832b37	-1.0247563
150	0xbf7767ef	-0.96642965
151	0xbd4ad590	-0.049520075
152	0x3f36edac	0.7145641
153	0x4006c89b	2.105994
154	0xbdca6424	-0.098823816
155	0xbfadb6ab	-1.3571371
156	0xbf8dddf4	-1.108336
157	0xbedce226	-0.43141288
158	0x3e9b51e0	0.30335903
159	0xbe7c65fe	-0.24648282
160	0x3f831aca	1.024255
161	0xbf92d70d	-1.1471878
162	0xc007b492	-2.1203961
163	0xbf1ea3fd	-0.61968976
164	0xc0222e4b	-2.5340755
165	0xbe9994c7	-0.2999632
166	0x3d0e61ec	0.034761354
167	0x3caaec7d	0.02086472
168	0xbff7169b	-1.9303774
169	0xc026b530	-2.6048088
170	0xc02ebc9b	-2.7302616
171	0xbdc9dea4	-0.098569185
172	0xc0058478	-2.0862103
173	0xbf465754	-0.77477
174	0xbfc5e507	-1.5460519
175	0x3f6cf710	0.9256449
176	0xbd8fb5d8	-0.07017106
177	0x3ef457ce	0.4772324
178	0x3f70c607	0.94052166
179	0x3f0a79ce	0.5409211
180	0xc0568c3d	-3.3523095
181	0x3f8bd36c	1.0923896
182	0xc0ad6ac2	-5.419282
183	0xbf0b12ae	-0.5432538
184	0x3e80b526	0.25138205
185	0x3fdca241	1.7237016
186	0xbfb506b6	-1.4142673
187	0x3eeda9e6	0.46418685
188	0xbf9c213d	-1.2197644
189	0x3f25732c	0.64628863
190	0xc03e2e1c	-2.9715643
191	0xc01a3caa	-2.4099526
192	0xbec422c6	-0.3830778
193	0x3f33e56b	0.7027194
194	0x3f446472	0.7671577
195	0xbfcf813f	-1.6211318
196	0xbf9ab356	-1.2085979
197	0x3f1db262	0.61600316
198	0xbecd7c66	-0.4013397
199	0xc06462d0	-3.568531
200	0xbf65dc9b	-0.8978974
201	0xbf6d09dc	-0.9259317
202	0xc020b358	-2.5109463
203	0x3f31dda2	0.6947881
204	0xbf15be84	-0.5849383
205	0xbf581e1c	-0.84420943
206	0xc0088449	-2.133074
207	0xbff491db	-1.9107012
208	0xbd3ec36c	-0.046573088
209	0xc09483f9	-4.64111
210	0xbf4e7921	-0.8065358
211	0x3f8ec33c	1.1153331
212	0xbf9d7848	-1.2302332
213	0x3f59e329	0.85112244
214	0xc038a420	-2.8850174
215	0xbd958dcc	-0.07302436
216	0xbf9ff37d	-1.2496182
217	0xc0161f05	-2.3456433
218	0xbdcf888a	-0.10133465
219	0xbfbfe0cb	-1.4990476
220	0xbf348b4c	-0.7052505
221	0xc019cadb	-2.4030063
222	0x3f0f9520	0.5608692
223	0x3e6dec74	0.23234731
224	0x3f308f7a	0.6896893
225	0x3f2d0c58	0.6759696
226	0x3f8182d5	1.0118052
227	0x3ec874de	0.39151663
228	0x4003b3da	2.0578523
229	0x3fcc2db7	1.5951451
230	0xbd9e474c	-0.077284425
231	0xc01c2bb8	-2.4401684
232	0xbfdfbf4e	-1.7480257
233	0x3ed1c2c5	0.4096891
234	0x3f73e638	0.9527316
235	0xbd5a2920	-0.053261876
236	0xbe1c8970	-0.15286803
237	0xc0097952	-2.1480298
238	0xbfa81883	-1.313248
239	0xbc170760	-0.009218067
240	0xbdedfaed	-0.11620126
241	0xbfebcc55	-1.8421732
242	0xbf7cba34	-0.98721623
243	0xc041f299	-3.030432
244	0xbf392c9f	-0.7233371
245	0xbf34fcc6	-0.706982
246	0xbff7c9ee	-1.9358499
247	0xc02cf86e	-2.702663
248	0x3fd02dd3	1.6263984
249	0x3f1a0238	0.60159636
250	0xc03615d0	-2.8450813
251	0xc08ba521	-4.3639073
252	0xbf28d8f1	-0.65956026
253	0xc004773c	-2.0697775
254	0xbe7c9b4a	-0.24668613
255	0xbfe04fc8	-1.7524347

fc2.bias f4 [50]
0	0xbf0045be	-0.5010642
1	0xbe3e3d6b	-0.18578117
2	0xbf9f5032	-1.2446349
3	0x3e1f8531	0.15578152
4	0xbdd9f0e6	-0.10641651
5	0xbf9a1af2	-1.2039473
6	0xbe160dd5	-0.14653714
7	0xbf73afcf	-0.9519014
8	0x3f366c1d	0.7125872
9	0x3efe6e75	0.49693647
10	0x3d480f3d	0.048842657
11	0xbde3f2ab	-0.111302696
12	0xbf4a3fbf	-0.7900352
13	0x3bca59f1	0.0061752726
14	0xbee4d6a9	-0.44695023
15	0x3e445034	0.1917122
16	0x3e4b10c6	0.19830617
17	0x3e9064e7	0.28201982
18	0xbe009495	-0.1255668
19	0xbdeaf637	-0.11472743
20	0xbfa79d34	-1.309485
21	0xbe734357	-0.23756157
22	0x3f6e0e9e	0.92991054
23	0xbf609b1e	-0.8773669
24	0xbe20e084	-0.15710646
25	0xbf3fc05c	-0.7490289
26	0x3ef3c8b8	0.47614074
27	0xbf3bd135	-0.733661
28	0x3ddd32cb	0.108007036
29	0xbde9b112	-0.114107266
30	0xbe784394	-0.24244529
31	0x3ed8c291	0.42335942
32	0x3e400fbb	0.18756
33	0xbd1e2e45	-0.038618345
34	0xbdc2a40c	-0.09503946
35	0xbe073cbe	-0.13206765
36	0xbf36f567	-0.71468204
37	0xbf3d165a	-0.7386223
38	0xbe851e40	-0.2599964
39	0x3e719eae	0.23595688
40	0xbf25c561	-0.647543
41	0xbee7391e	-0.45160764
42	0x3f7c92cd	0.986615
43	0x3e38703a	0.18011561
44	0xbc829a29	-0.01594265
45	0x3f374035	0.7158235
46	0xbe1ae0ec	-0.15124863
47	0xbcd6aa9b	-0.026204398
48	0x3fb86388	1.4405375
49	0xbf04e483	-0.5191118

fc3.weight f4 [4, 50]
0	0xbf46e058	-0.7768607
1	0xbd6b9a0a	-0.05751995
2	0xbfb46167	-1.4092225
3	0x3f9910cd	1.1958252
4	0x3e9a5e86	0.3015024
5	0xc00ab2ac	-2.1671553
6	0xbc5d7f66	-0.013519144
7	0xbf8c4081	-1.0957185
8	0x3f6d570d	0.92710954
9	0xbf2b75f0	-0.66976833
10	0xbf88bfec	-1.068357
11	0x3da9bea8	0.08288318
12	0x3ff949b5	1.9475619
13	0x3d45b0b1	0.04826421
14	0x3fba533b	1.455665
15	0xbf35ccd2	-0.71015656
16	0x3e2372ab	0.15961711
17	0xbd24c737	-0.04022905
18	0x3d49ba01	0.049249653
19	0x3e4d6ad0	0.20060277
20	0x3fb08476	1.3790424
21	0xbd7f78b9	-0.06237099
22	0xbe179af0	-0.14805198
23	0x3f9c2b83	1.2200779
24	0xbeeebd24	-0.46628678
25	0xbfa24c97	-1.2679623
26	0xbe7bb759	-0.2458166
27	0x3ee64404	0.44973767
28	0x3eb5a504	0.3547746
29	0x3c69b65a	0.014264667
30	0xbec75ab7	-0.38936397
31	0xc03a79ce	-2.9136844
32	0x3f07aedc	0.5300119
33	0x3ddd9456	0.108193085
34	0x3d11b62b	0.03557412
35	0x3df6a8b2	0.12043895
36	0xbf8fb074	-1.1225724
37	0xbf75c2e9	-0.96000534
38	0xbff02897	-1.8762387
39	0xbddf5a96	-0.1090595
40	0xbf909619	-1.1295806
41	0xc023a700	-2.5570679
42	0xbe928128	-0.28614163
43	0xbff5666f	-1.9171885
44	0x3e0b9666	0.13631591
45	0x3de46bcf	0.11153375
46	0x3d02a834	0.031898692
47	0x3efe07a7	0.49615213
48	0xc094851b	-4.641248
49	0xbf8cd5fd	-1.1002804
50	0x3f7d15a4	0.98861146
51	0xbb1ce929	-0.0023942685
52	0x3fa72968	1.3059511
53	0x3f125d5f	0.57173723
54	0xbff90e0d	-1.9457413
55	0x3fc75b23	1.5574688
56	0x3d85c560	0.06531787
57	0x3ee1e1c8	0.4411757
58	0x3f0238e5	0.50868064
59	0xbf8383a6	-1.0274551
60	0x3eedc71d	0.46440974
61	0xbdbca077	-0.09210294
62	0x3f1c4268	0.6103883
63	0x3c7c59a0	0.015402228
64	0xbe08fc4a	-0.1337749
65	0x3e1384bb	0.14406101
66	0xbf826494	-1.0186944
67	0x3f7db3ef	0.9910268
68	0xbd1e0054	-0.03857453
69	0x3eb32a84	0.34993374
70	0x3f42713c	0.7595403
71	0xbd3ca777	-0.046058144
72	0xbfcb2ba3	-1.5872692
73	0x3fa73a94	1.3064752
74	0x402db956	2.714437
75	0x3f76fcce	0.964795
76	0x3ecf756f	0.40519282
77	0x3f3e1cdc	0.74262786
78	0xbf18879a	-0.5958191
79	0xbdab00db	-0.083497725
80	0xc0558724	-3.3363733
81	0x3fcbf24c	1.5933318
82	0x3eb434da	0.35196573
83	0x3de97cf1	0.11400784
84	0xbc843cce	-0.016142275
85	0x3d982d7e	0.07430552
86	0x3f56de88	0.83933306
87	0xbf61f12d	-0.8825863
88	0xbdee984d	-0.11650143
89	0x3da047fa	0.078262284
90	0x3f1fb50a	0.6238562
91	0x3df4fc0a	0.11962135
92	0xc07d8182	-3.9610295
93	0x3e123e4f	0.14281581
94	0xc077e0a2	-3.8730855
95	0xbe11bea4	-0.1423288
96	0xbdccfb7e	-0.10008906
97	0xc04a850d	-3.1643708
98	0xbe4ecfbb	-0.2019643
99	0x3fbee6db	1.4914201
100	0x3fc0f071	1.5073377
101	0xbd8e1fc3	-0.06939652
102	0x3ec30e56	0.38096875
103	0xbee15c8a	-0.44015914
104	0x3f3e5185	0.7434314
105	0x3f7e484b	0.9932906
106	0x3d6fb379	0.058520768
107	0x3ddbf4dc	0.107400626
108	0x3f88a6e0	1.0675926
109	0xbfbcdf2c	-1.4755607
110	0xbff52ab5	-1.9153658
111	0xbce9dfcc	-0.028549097
112	0x3f36753c	0.71272635
113	0x3d95e706	0.07319455
114	0x3fa4b2c2	1.2867053
115	0xbe8aef67	-0.27135774
116	0xbe6feb11	-0.23429514
117	0xbec333d7	-0.38125488
118	0x3d94f756	0.07273738
119	0xbf9d724c	-1.2300506
120	0xbe8f4107	-0.279793
121	0x3cfc8072	0.030822966
122	0xc06b20d8	-3.6738796
123	0xbf5a1bed	-0.8519886
124	0xbfdbbbd6	-1.7166698
125	0xbf4e275b	-0.805288
126	0xbffb8497	-1.9649838
127	0x3ea861ae	0.32887024
128	0xbf49a267	-0.7876343
129	0xbdbd8a7c	-0.092549294
130	0x3f8f41a3	1.1191906
131	0x3efe8754	0.49712622
132	0xc0240792	-2.562962
133	0x3de5df47	0.112242274
134	0x3d3f382e	0.046684437
135	0x3d06ae7b	0.03288124
136	0x40007292	2.0069928
137	0xc0101cb4	-2.251752
138	0x3ee0b0e4	0.43884957
139	0x3f082e0c	0.5319526
140	0x401bd2a1	2.4347308
141	0x3f6f1d28	0.93403864
142	0xbf182d1c	-0.5944383
143	0x3f9cfca3	1.2264599
144	0xbf8bc9dd	-1.0920979
145	0xbcb5381d	-0.022121483
146	0x3d54599d	0.051843274
147	0x3cd6f3de	0.026239332
148	0xbf318c79	-0.6935497
149	0xbf74dfd0	-0.9565401
150	0x3fe957c3	1.8229908
151	0xbcb5be38	-0.02218543
152	0xbfa233c7	-1.2672051
153	0xbfe37fb3	-1.7773346
154	0xbff47d7e	-1.9100797
155	0x40354aed	2.832698
156	0x3d65adda	0.056074
157	0xbf04773c	-0.5174444
158	0x3f2f697b	0.68520325
159	0xbfe38cb9	-1.777732
160	0x3f0d97aa	0.55309546
161	0x3d306769	0.04306737
162	0xbf9cfa51	-1.226389
163	0x3b1f7004	0.002432824
164	0x3f42a913	0.76039237
165	0xc08307bf	-4.0946956
166	0x3e9297aa	0.28631335
167	0x3eba57cb	0.36395106
168	0x3b856e7b	0.004072008
169	0x3e421186	0.18951997
170	0x3f81a73b	1.012916
171	0xbd86d050	-0.06582701
172	0xbe8f2312	-0.27956444
173	0x3f1b7bfb	0.60736054
174	0xbe8577c9	-0.2606795
175	0xbdbe5c47	-0.09294944
176	0xbff45771	-1.9089185
177	0xbf89ff27	-1.0780991
178	0xc0522783	-3.2836616
179	0x3e053c42	0.13011268
180	0x3f000b8d	0.50017625
181	0xbf9fc282	-1.2481234
182	0x3f0d4e70	0.5519781
183	0x3dcc14aa	0.09964879
184	0xbd089017	-0.03334054
185	0xbd82972e	-0.063764915
186	0x3fa8349e	1.3141057
187	0x3e52a12d	0.20569296
188	0x3e996a35	0.29963842
189	0xc08205b0	-4.0631943
190	0x3f1efa18	0.6210036
191	0xbec2c2f9	-0.38039377
192	0xbf7d63bf	-0.98980325
193	0xbdcd4ce1	-0.10024429
194	0x3e269e7a	0.16271392
195	0xc080cb4a	-4.0248156
196	0x3da1fb4c	0.07909259
197	0x3dd7deb4	0.10540524
198	0xbd92c2cb	-0.0716606
199	0x3fb86b62	1.4407771

fc3.bias f4 [4]
0	0xbddf5d03	-0.109064125
1	0xbeced1a2	-0.40394312
2	0xbf13b3dc	-0.5769632
3	0xbf1cff28	-0.6132684
