Tables/DQN.pt (torch, 19031 bytes, 6 tensors)

fc1.weight f4 [64, 12]
000000 a9 63 bc bd e3 64 fb 3e 06 bd 76 3f 85 4f 26 3e
       -0.09198696 0.49100408 0.96382177 0.16241272
000010 4a 68 5b 3e 7b 04 a2 3f e4 e5 73 bf 2c 3b 8e 3e
       0.21426502 1.2657617 -0.9527266 0.2777952
000020 fd 2e b8 be 06 a8 ce bf ec 3a cd be f9 10 56 3f
       -0.3597335 -1.6145027 -0.40084016 0.8361965
000030 4b a9 89 3c 3c dd fa 3b 33 1c 83 be 82 b6 50 bf
       0.016804358 0.0076557677 -0.25607452 -0.81528485
000040 bd e6 69 3f 33 b2 0b bf 9b cd 4a bf 99 a7 33 bf
       0.91367704 -0.54568785 -0.7921998 -0.7017761
000050 e3 84 e7 bd e9 7d cc 3f 85 54 3e 3e 44 21 75 3f
       -0.11304643 1.5975925 0.18586929 0.95753884
000060 fc 2b 19 3f 9e ce 7c be 43 f5 bb 3d 23 a8 76 3e
       0.5983274 -0.24688193 0.09177639 0.24087577
000070 b8 a6 ff bf 31 de d1 be 7d 5e 19 3e 0f 86 07 c0
       -1.9972754 -0.4098983 0.1497745 -2.1175573
000080 85 2e 9d 3e 8b b7 3e 3f fc 70 db be b3 34 c1 3d
       0.30699554 0.74498814 -0.42859638 0.0943388
000090 b8 d9 3e 3f 80 51 50 3f 79 76 89 bf d6 58 0c c0
       0.7455096 0.8137436 -1.073928 -2.192922
0000a0 17 3b 37 bf 9d 8b c6 be b4 fd d5 3e 7e 0f e3 3d
       -0.7157454 -0.3877839 0.41795123 0.11086939
0000b0 ea c7 4c bd f3 40 26 be bf 05 9e bf c1 c5 b2 3f
       -0.04999534 -0.16235714 -1.2345504 1.39666
0000c0 e9 aa d5 be 45 9c a6 be df 51 60 bf 64 47 da 3e
       -0.41731957 -0.325411 -0.87624925 0.42632592
0000d0 14 b3 10 bf ea 81 db bf ab 2f ba 3e 80 1e 53 3e
       -0.5652325 -1.7149022 0.36364493 0.20617104
0000e0 a4 34 78 be 5a b1 01 c0 2b ec 58 3f 61 c1 34 3f
       -0.24238831 -2.0264497 0.84735364 0.7060757
0000f0 48 0b 9c 3f e7 c3 f6 3c 65 7a 37 3e 32 83 04 bf
       1.2190943 0.03012271 0.17917784 -0.5176269
000100 f6 68 17 bf df 5c 0a bf 87 d0 77 3f f2 9c 01 be
       -0.5914453 -0.5404796 0.9680256 -0.12657526
000110 77 6d a5 bf 91 9c 35 c0 a2 79 7b 3f 5b df 29 3f
       -1.2924031 -2.837681 0.9823247 0.6635644
000120 87 6b 89 be f2 44 4f bf 15 ff 00 3f 83 6d 53 bd
       -0.2683985 -0.8096458 0.50389224 -0.05161811
000130 9f de 56 bf 32 90 8c 3e 3a 8f 83 be 44 36 37 3f
       -0.8393344 0.27453762 -0.2569521 0.7156718
000140 ab b0 c2 bf 5a 68 cc 3f ad 4b 1b 3b 01 c8 23 be
       -1.5210165 1.5969346 0.002369623 -0.15994264
000150 8e 46 fe 3d 58 69 08 3f cd 4b 03 bf 19 f2 6e 3f
       0.12415801 0.5328574 -0.5128754 0.9333816
000160 dd 06 9e bf 2c 51 a3 bf 24 17 0a 3e 53 8e a8 3f
       -1.2345845 -1.2759147 0.1348539 1.3168434
000170 65 71 89 3f 79 13 9f be c0 70 12 bf d1 40 18 bf
       1.073773 -0.31069544 -0.5720329 -0.594739
000180 3b ed 98 bf ef c7 fc bc 4e 29 1b bf 01 c9 93 3e
       -1.1947397 -0.030857055 -0.606099 0.2886429
000190 38 c1 0f bf fb 80 0b 3f f2 c1 14 3e aa 9b 48 3f
       -0.56154203 0.54493684 0.1452711 0.78362525
0001a0 05 5b 8f bf 9c 10 b0 3f 4a fd 77 3e 45 97 3b 3f
       -1.1199652 1.3755069 0.24217716 0.73277694
0001b0 f4 c8 09 c0 e7 a4 3c c0 30 b8 3a 3d 7f 11 9e 3f
       -2.1528902 -2.9475648 0.04558581 1.2349089
0001c0 b1 f8 80 bf 72 84 14 bf db 4d 95 bc 64 70 e6 bf
       -1.0075895 -0.58014596 -0.018225601 -1.8003049
0001d0 b0 49 a1 3f 22 70 e3 3f 53 a1 79 3e 28 ab 79 bf
       1.2600613 1.7768595 0.24377947 -0.9752679
0001e0 88 4d 13 3b 5c 8e cf 3f 84 d5 14 bf e6 da 97 3f
       0.0022476632 1.621532 -0.581383 1.1863678
0001f0 5d 65 b3 be cc a9 f9 be 59 33 36 bf f3 17 18 3f
       -0.35038272 -0.48762357 -0.711721 0.59411544
000200 19 22 ae bf fb 00 51 3f f0 af 26 bf 81 dd c4 be
       -1.3604156 0.8164212 -0.6511221 -0.38450244
000210 85 68 df be 95 a5 3d bd 07 f8 4a bf 1b 5c d3 bc
       -0.4363443 -0.04630049 -0.7928471 -0.025800755
000220 9c ef 0f 3f d1 54 2f 3f 5c 40 aa be a8 60 58 3f
       0.5622499 0.68488795 -0.33252227 0.84522486
000230 2e 2f 85 3f cf 84 bf 3e cb ec ab bf 69 e1 55 3f
       1.0405023 0.37406012 -1.3431638 0.83547074
000240 48 2f 92 be 88 36 6e 3f 38 1f 9b 3f e5 30 02 3f
       -0.28551698 0.9305196 1.2118902 0.5085586
000250 6f 2c 1f 3f 40 7b 8b bf 6a 9e c9 bf ae 33 22 3f
       0.62177175 -1.0896988 -1.5751469 0.63360107
000260 43 63 d8 bf f8 2a 84 3f 32 30 16 bf e8 01 50 bf
       -1.6905292 1.0325613 -0.5866729 -0.8125291
000270 cc 70 3f bf 23 69 d8 3d 72 3d 6e 3f e0 d7 d2 be
       -0.7478149 0.10566928 0.9306251 -0.41180325
000280 a7 96 9c 3e 9f b6 91 bd f5 6b 8a bf 83 cd 12 bf
       0.3058369 -0.0711491 -1.0814196 -0.57344836
000290 2e cd b9 3e 64 db 85 be a0 4f 95 3f 84 26 0c bf
       0.36289352 -0.26143944 1.1664925 -0.5474627
0002a0 98 20 1d 3f a2 26 37 bf d8 57 30 3f 57 52 58 3f
       0.6137786 -0.71543324 0.6888404 0.8450064
0002b0 88 25 13 3f 32 e4 76 bf f2 0a 90 bf cd 94 1e bf
       0.57479143 -0.9644195 -1.125334 -0.619458
0002c0 60 b7 ba bf 33 7d c6 3e 36 48 4f bf fb 3b 5a 3f
       -1.4587212 0.38767394 -0.8096956 0.8524777
0002d0 49 92 32 3f 8a 65 a9 bf e8 f3 87 be d2 e8 07 3f
       0.69754463 -1.3234112 -0.26553273 0.5308963
0002e0 e6 99 39 bd d0 59 16 3f 43 59 58 be 48 43 c2 bf
       -0.045312785 0.58730793 -0.211278 -1.5176783
0002f0 93 ee 6b 3f ae 40 a4 3e 82 43 f6 3e aa 5a 83 bf
       0.9216091 0.32080597 0.4809838 -1.0262043
000300 50 70 72 be 62 0d dc bd 82 85 5f be ac 79 af bd
       -0.23675656 -0.1074474 -0.21828273 -0.08568129
000310 89 a7 1e be 08 89 fe bd f2 0d af bd f1 6e 00 be
       -0.15493597 -0.124284804 -0.08547582 -0.12542321
000320 13 82 18 be 00 92 88 bb 60 8a 36 3d 3e 47 91 bd
       -0.1489337 -0.004167795 0.04456556 -0.070936665
000330 74 1e 9c 3f e7 82 aa 3f 85 62 5a 3f 8e 91 9d 3d
       1.2196794 1.3321198 0.8530658 0.07693778
000340 ce 9f 42 bf 2d 8e 17 bf 7c 00 13 3f f3 e0 92 bd
       -0.7602509 -0.5920132 0.57422614 -0.07171812
000350 30 d0 70 bf 57 fc 3c 3f a8 74 86 3f 1a 3a ed bf
       -0.9406767 0.7382254 1.0504351 -1.8533356
000360 f2 6e 09 3f 08 73 9d be 5a e1 44 3f d5 dd c1 be
       0.53684914 -0.30751824 0.7690636 -0.37864557
000370 f1 10 d8 3e 6f 72 72 bd 73 b7 b6 be 3d 57 ba 3e
       0.42200425 -0.059191164 -0.35686836 0.36394683
000380 82 bf 7c 3f 0b 35 40 bf 64 59 9b 3f ee 0b 56 bf
       0.9872972 -0.7508094 1.2136655 -0.83611953
000390 ba b4 19 be 12 1e 61 3e 88 d9 9b 3e a0 35 d8 be
       -0.15010348 0.21984127 0.304394 -0.42228413
0003a0 f8 a4 d7 bf 23 21 a5 be 05 00 38 3f 0f 42 0a 3f
       -1.684722 -0.32251844 0.7187503 0.5400705
0003b0 8f e4 8a 3f ad 83 37 be bb 91 ad bf 0a 0a 00 be
       1.0851 -0.17921324 -1.3560098 -0.1250383
0003c0 1f 8d 0c bf e0 d4 97 3f 39 49 09 bd 09 45 a6 3e
       -0.54902834 1.1861839 -0.033517096 0.32474545
0003d0 bf 76 20 3f 8b 27 72 bf b7 ef f6 be aa 85 13 3f
       0.6268119 -0.9459159 -0.48229763 0.5762583
0003e0 dd 76 15 bf d5 96 85 bf 0c 66 17 3d 1a ee 99 be
       -0.58384496 -1.0436655 0.036962554 -0.3006447
0003f0 89 f0 60 3e e1 e4 04 3f 73 46 75 3f 8e b1 a8 3e
       0.21966757 0.5191174 0.9581062 0.32947963

fc1.bias f4 [64]
000000 93 ea 90 3d b5 ba f8 be ec 86 fb be 01 b9 e7 3d
       0.070759915 -0.48579946 -0.49126375 0.113145836
000010 95 b5 2b bf 65 5b 78 be c9 b0 82 3e 6b b9 c9 bd
       -0.6707395 -0.24253614 0.255255 -0.09849819
000020 47 a3 fc bd 72 1f 60 be 07 8b bf 3e f1 a7 ea bd
       -0.1233583 -0.21886995 0.37410757 -0.114578135
000030 af 33 68 3e 5f 35 a2 3a 60 00 82 bc 6c f9 fa be
       0.22675966 0.0012375525 -0.01586932 -0.4901842
000040 54 1e 83 be 9f 1c a4 3e 2e 2f 4a bf eb e8 93 be
       -0.25609076 0.32053086 -0.7897824 -0.2888864
000050 fe 96 1b 3f dc 55 55 3f 84 10 04 3f 31 48 1d be
       0.6077727 0.83334136 0.515877 -0.1535957
000060 6f 53 05 bf 8a 76 36 bf c6 ee 5d be 0b 8d d4 3e
       -0.52080435 -0.71274626 -0.21673116 0.41513857
000070 55 2f d9 3c 06 a5 be 3d fe 3e ac be 13 2e 91 3e
       0.026511827 0.093088195 -0.3364181 0.28355464
000080 cc b4 90 bd bd 6b 3b bf 85 ec 85 3f dd 85 98 3c
       -0.07065734 -0.7321127 1.0462805 0.018618518
000090 7b 58 b9 be af 55 ce 3e 93 23 8a be b4 0e 72 be
       -0.36200318 0.40299746 -0.26980266 -0.23638421
0000a0 15 a7 dd 3e 7f 36 53 be ef a1 ef bd dc c3 4e be
       0.43291536 -0.20626257 -0.11700808 -0.20191902
0000b0 bc 45 5b be f9 03 25 3d e3 fa fb 3e b0 d9 81 3e
       -0.2141332 0.04028699 0.4921485 0.25361395
0000c0 20 45 88 bf 4e c9 c3 be fd 4c 45 bf fc a1 28 3e
       -1.0646095 -0.3823952 -0.770706 0.16468042
0000d0 7e eb bb 3f df 2d d6 bd 03 a9 a8 3f b2 93 b2 3e
       1.4681242 -0.10457968 1.3176578 0.34878308
0000e0 9a 42 09 3e bf 49 df be a8 35 18 3f 33 2b 80 be
       0.13404313 -0.4361095 0.5945687 -0.25032958
0000f0 26 4c 09 3a 16 32 d8 bd d9 19 bc 3e 79 1e dd 3e
       0.0005237482 -0.10556428 0.3673847 0.4318731

fc2.weight f4 [50, 64]
000000 38 bf c1 bc 4e 06 27 3b e3 38 51 3c 9a 4d fb bd
       -0.02365075 0.0025485936 0.0127699105 -0.12270661
000010 26 db 40 3d 6d 04 6e bd 4e 1e 6f 3c 9c c8 fc 3d
       0.047083996 -0.05810969 0.014594628 0.12342951
000020 49 ce 12 3d fc 75 d3 bd c3 05 86 bd 5c 23 67 bc
       0.03584126 -0.10325238 -0.06544068 -0.014107551
000030 10 d9 b8 bc c6 f1 fc bc 4d bf 64 bd eb aa c2 bd
       -0.022564441 -0.030877005 -0.0558465 -0.09505256
000040 90 52 ad bc 64 48 e8 bc cb 26 be 3d f0 90 54 3d
       -0.021157533 -0.028354831 0.09284743 0.051896036
000050 55 c5 82 bd b3 38 dd bd 46 dc d9 bc d8 6d 8a bd
       -0.06385294 -0.1080183 -0.026594292 -0.06759232
000060 f0 27 ab bd fa 45 2a bc 7a 1b f4 bd 99 2c 8c bd
       -0.08357227 -0.01039266 -0.11919303 -0.06844444
000070 40 e7 42 bb c8 4e a2 ba ac ea 64 3d a4 ba a4 3d
       -0.0029739887 -0.0012383098 0.055887863 0.080434114
000080 9c 6e f7 bc f7 e1 de bd 5d 91 16 3c 38 dc 90 bd
       -0.03020411 -0.10882943 0.009189931 -0.070732534
000090 7c 67 0c 3d 78 86 f6 3c 72 3d 93 bd d9 e5 a4 3d
       0.034278378 0.030093417 -0.07189454 0.080516525
0000a0 ee d6 3f bd 35 db d0 bd 4c 30 47 3c b1 74 37 bd
       -0.046835832 -0.101980604 0.012157511 -0.04478902
0000b0 7f 24 13 be 26 3e 31 3c 24 fb 78 3d d7 85 b6 bc
       -0.14369391 0.01081804 0.06078638 -0.022280617
0000c0 7b ae f9 bc 61 71 8c bd 63 f2 b6 3d 0d 24 01 be
       -0.030478707 -0.06857563 0.0893295 -0.12611409
0000d0 d0 7e 86 3c 59 71 38 bc 07 5c 1b be 9f 35 7e 3c
       0.01641789 -0.011257493 -0.15171824 0.015515714
0000e0 45 3f cc bc a6 81 93 3c 60 a7 c0 bd 2b 99 cc bd
       -0.024932513 0.018006157 -0.09406924 -0.09990152
0000f0 4e 45 66 bd d9 f3 4c bd 5e 63 8b 3d a0 a6 31 bd
       -0.056218438 -0.05003724 0.06806062 -0.043371797
000100 3b 31 de bf f3 ca 37 be 87 f7 45 3f b8 fe 19 c0
       -1.7358774 -0.17948513 0.7733082 -2.4061718
000110 a5 31 b8 3f 67 54 ed bd cf 8d ba be b6 88 3e 3f
       1.439015 -0.11588364 -0.36436316 0.74427354
000120 d9 68 dd be a7 6e 95 3e 20 be 0c c0 1e 4d 01 3f
       -0.43244055 0.29185984 -2.1991043 0.50508296
000130 1c 39 92 bf e9 29 8a bf d9 fb 90 bf 4b ff 3b bf
       -1.1423678 -1.079404 -1.1326858 -0.7343642
000140 00 e7 41 bd 89 75 05 c0 bf 05 cd bf 25 d6 8e bf
       -0.04733944 -2.0852988 -1.6017379 -1.1159102
000150 9f 9b b9 bf 36 58 b3 bf b1 0f f9 bf f0 27 f3 3c
       -1.4500617 -1.4011295 -1.9457914 0.02968213
000160 72 26 94 3e 49 2e da bd 86 75 ad bd a5 73 23 3f
       0.2893558 -0.106533594 -0.084696814 0.63848335
000170 ff 35 5d bf 2b 29 04 be de 4f 8b bf d5 94 c5 bb
       -0.86410517 -0.1290633 -1.0883749 -0.006029705
000180 0e 99 13 3d cb 03 b4 3e 17 08 20 c0 f9 bf fb bc
       0.036034636 0.35159144 -2.5004938 -0.030731188
000190 44 3a 28 bf 64 a4 0f c0 42 11 86 3d 7b 36 26 3e
       -0.65713906 -2.2444086 0.065462604 0.1623172
0001a0 49 66 84 bf 02 a4 89 3f db b0 20 3f 03 40 2d 3e
       -1.0343715 1.0753176 0.6276986 0.1691895
0001b0 94 5e 6b bf c0 ea 13 bf 09 f2 65 bf 23 3a 47 3e
       -0.9194119 -0.57780075 -0.8982244 0.19455771
0001c0 5c 12 83 3e 41 a0 fd 3d 0e 6d b1 3e 59 01 9a be
       0.25599945 0.12384082 0.34653515 -0.30079153
0001d0 b8 13 d0 bf 6c 59 4a be 66 b5 21 bf b5 39 68 3e
       -1.6256018 -0.19760674 -0.6316742 0.22678263
0001e0 2f 7c ec bf 4b b6 bb 3e 50 f7 61 c0 93 2d 1b 3e
       -1.8475398 0.36662516 -3.5307198 0.15154104
0001f0 cf a8 ce bf 4c aa da ba f6 87 89 bd 44 04 17 c0
       -1.6145266 -0.0016682833 -0.067153856 -2.3596354
000200 86 2c 35 c0 56 79 d0 bf 01 9c ac 3f 86 dc 94 bf
       -2.8308425 -1.6287029 1.3485109 -1.1629798
000210 13 2c 90 bb 3f b4 b7 bf ab 96 3c bf 8e f4 a3 be
       -0.0043997853 -1.4351882 -0.736674 -0.32022518
000220 46 6b ee be f6 99 21 bd 12 ac 06 c0 61 61 8e 3f
       -0.46566218 -0.03945347 -2.1042523 1.1123468
000230 f1 da 56 c0 57 69 4f bf 6e bf b7 be 22 15 96 3d
       -3.3571131 -0.8102011 -0.35888237 0.073282495
000240 04 33 64 3d 0b dc f1 bf f8 fd b7 3d 69 4c d1 be
       0.055712715 -1.8895277 0.089839876 -0.4087861
000250 d2 2b 22 c0 f2 3d 9c bf 92 49 2c c0 bf d6 72 bd
       -2.5339246 -1.2206404 -2.6919904 -0.05928683
000260 ac 1b b9 bd 5a 8a 41 bd 24 64 ca bd 2c 7a 7c be
       -0.09038481 -0.047251083 -0.098823816 -0.2465598
000270 4d 50 d1 3e 8b 7c 14 3f 0e 81 5d bf 78 42 06 c0
       0.40881577 0.5800254 -0.86525047 -2.097807
000280 0f 85 58 bf bb e4 1b 3f 72 09 4c c0 ce 6e 8a 3f
       -0.8457803 0.6089589 -3.1880765 1.0815065
000290 b4 4b b0 bf b6 48 2c c0 ec 61 0e 3d c3 e3 9d 3e
       -1.3773103 -2.691938 0.034761354 0.3083783
0002a0 8c 6f 09 3f 56 37 5c 3e ca 35 28 3f 43 8c 0b 3d
       0.5368583 0.21505484 0.65707076 0.03406931
0002b0 72 63 88 bf 45 e0 8b bf 1e d6 03 c0 b4 6c b6 3e
       -1.0655348 -1.0927817 -2.0599437 0.3562981
0002c0 5c c1 4e 3f 7a 78 bc 3e 8a f2 c2 3e 8f 5e db bc
       0.80763793 0.36810666 0.38075668 -0.026778487
0002d0 9f 81 2e c0 6b 2f 6c bf eb 41 ab bf 8c 6c 8a 3f
       -2.7266614 -0.92259854 -1.3379492 1.0814376
0002e0 e4 4d 12 c0 8a 71 1d 3f 78 ee 31 c0 ee 2d 25 bf
       -2.286004 0.6150137 -2.78018 -0.6452321
0002f0 44 aa a9 be 20 1f 94 bf 5b 0a 6a bf cb 01 92 bf
       -0.33137715 -1.1571999 -0.9142205 -1.1406797
000300 42 48 8b bf 16 53 e1 3f ec 94 a7 bf 72 60 b1 bf
       -1.0881426 1.7603481 -1.3092322 -1.3857558
000310 a5 03 1e 3e 06 21 95 bf 1d ce 32 3b cc 47 9e bf
       0.15431078 -1.1650703 0.0027283498 -1.2365661
000320 a2 71 40 bf fb 42 43 3e 1d 8e 45 c0 94 71 35 3f
       -0.7517339 0.1906852 -3.086799 0.7087643
000330 fc 74 9e bf 35 82 87 3e fa 98 a9 bf b6 d3 23 c0
       -1.2379451 0.26466528 -1.324981 -2.5597968
000340 6c c3 3e bd 1b 2a d4 bf 51 b0 07 bf 72 ea 18 c0
       -0.046573088 -1.657535 -0.5300341 -2.3893094
000350 8a ac 53 bf 5f 96 c9 bf bf d4 e1 be cc 8d 95 bd
       -0.8268515 -1.5749015 -0.44107625 -0.07302436
000360 e7 3f 49 bf bb cc c6 3e 8a 88 cf bd b3 be 07 3f
       -0.7861313 0.38828072 -0.10133465 0.5302536
000370 ea 95 f1 bf 48 0b 36 3e a5 a9 00 bf 63 bc 19 c0
       -1.8873875 0.17777741 -0.50258857 -2.4021232
000380 fa 20 d7 bf 29 d3 f0 3e 4a d7 9a be 48 48 83 3f
       -1.6806939 0.47036102 -0.30242378 1.0256433
000390 25 7d 8c 3e a7 1d 8d bf 4c 47 9e bd 10 72 9e bf
       0.27439228 -1.1024674 -0.077284425 -1.2378559
0003a0 3b 7f 08 c0 87 e6 6e 3e e4 99 45 c0 2d a3 6c 3f
       -2.1327655 0.23330127 -3.0875177 0.92436486
0003b0 f6 0d 45 3f c1 c8 66 be 8a f9 f4 bf d4 cc b4 3e
       0.7697443 -0.22537519 -1.9138653 0.3531252
0003c0 35 21 28 3f 58 ec 0f 3f 7c b4 08 3f 01 2d b8 bf
       0.6567567 0.56220007 0.534004 -1.4388734
0003d0 25 9a 07 3e 2c 9a e7 3e ee ec 09 bf 5c b8 d7 bf
       0.13242395 0.4523481 -0.5387715 -1.6853137
0003e0 38 05 ad bf bc 2b 60 3f f4 17 d3 bf ab 57 60 bf
       -1.3517218 0.87566733 -1.6491685 -0.8763377
0003f0 f3 ba 84 bf 01 07 a5 3e 30 a9 44 3f ee 41 ce bf
       -1.0369552 0.32231906 0.7682066 -1.611387

fc2.bias f4 [50]
000000 0e 5e 02 be f3 0d 05 bf c7 af 79 bc 01 9e ba 3e
       -0.12731192 -0.5197441 -0.0152396625 0.36448672
000010 12 e5 1b 3d 84 df 7b 3e af a6 2e bf f6 82 7f 3e
       0.038060255 0.24596983 -0.6822309 0.24952301
000020 10 88 3c 3c 69 a2 4a 3f 99 af 82 3e 02 bb 5a bd
       0.011507049 0.7915407 0.25524595 -0.053401
000030 93 8b 5b be 96 c1 d6 3e 06 16 bf bd ae e5 59 3c
       -0.21439962 0.4194457 -0.093303725 0.013299389
000040 33 ca 8d 3b 9e b5 1f 3e 68 fa 28 3d b1 bf 88 bd
       0.0043270825 0.15596625 0.04125443 -0.06677187
000050 fd 44 4d be e4 02 b2 be f0 2b 87 3e a5 c5 a9 3e
       -0.20045848 -0.3476783 0.2640071 0.33158603
000060 20 28 25 be 24 05 22 be 2a 39 fd bd 94 d0 1c 3e
       -0.16128588 -0.15822273 -0.12364419 0.15313941
000070 f8 cd 63 3e c7 41 2c 3d 16 23 04 3c f6 71 be be
       0.2224654 0.042054918 0.008065006 -0.3719632
000080 11 86 78 3d ba b8 3f bd 90 31 06 bd a0 2a f4 be
       0.06067473 -0.04680703 -0.03276211 -0.4768877
000090 47 9a e0 be 28 8d d7 3e 86 b5 1b be 47 e1 ae be
       -0.43867704 0.4209988 -0.15205964 -0.34156248
0000a0 36 d5 b2 be 53 a6 4a 3d 44 3f 10 3b cd 8c 27 3f
       -0.34928292 0.049475025 0.0022010366 0.6544922
0000b0 0c d6 63 3e 23 af 40 be 2f 22 db bd c0 8a 4f be
       0.22249621 -0.1881681 -0.106998794 -0.20267773
0000c0 ad 65 e7 bd e9 c3 ed be
       -0.1129869 -0.4643853

fc3.weight f4 [4, 50]
000000 6e 4b af bd 91 5f c1 bf fa 12 ac bf 35 0b 15 bf
       -0.08559309 -1.510729 -1.3443291 -0.58220226
000010 6b 86 e8 bf b1 fd 75 bf 6e a8 31 bf cc 21 56 3e
       -1.8166021 -0.9609023 -0.6939763 0.2091133
000020 65 70 74 3d b3 8f 2c bf ab 0f 08 3e 7c 25 9f 3d
       0.0596775 -0.6740677 0.13287227 0.077708215
000030 81 7c b4 bf 31 a7 52 3f dd 6f ce bf 13 e9 6b be
       -1.4100496 0.82286364 -1.6127888 -0.2303813
000040 57 8f b9 3d ef 29 98 bc c2 0a cb 3f 04 ce 33 be
       0.09060543 -0.018574683 1.5862658 -0.17559057
000050 34 86 07 40 23 a8 80 bc 1c 78 b2 bf 8b a8 18 bf
       2.117566 -0.015705174 -1.3942904 -0.59632176
000060 74 df d5 bf 92 78 e0 bd 24 b9 77 3f 0a 9e e5 3e
       -1.6708817 -0.10960497 0.9676688 0.44847137
000070 c6 93 db 3e 7a 4f 52 bf 21 16 cf be 6b d4 92 bf
       0.4288618 -0.8215252 -0.4044657 -1.1471075
000080 b8 61 81 3f c2 0a b3 3d f2 e8 19 3d de 67 b1 3f
       1.0107946 0.08742286 0.03757567 1.3859823
000090 14 40 5f c0 56 69 82 c0 54 40 b3 bc 18 47 09 40
       -3.488286 -4.0753584 -0.02188126 2.1449642
0000a0 24 2d 89 3e ec cd ac 3e 22 19 da bf 27 ce cf bf
       0.26792252 0.33750856 -1.703892 -1.6234788
0000b0 c2 84 cb 3d 51 d4 9f 3f 10 70 01 3b 77 bf 6b 3f
       0.09937431 1.2486669 0.0019750632 0.9208903
0000c0 f4 d2 71 c0 15 b3 de 3e c5 fa 0c 3e a4 0b 92 bf
       -3.7785006 0.43496004 0.13767536 -1.1409802
0000d0 64 1e dd be 47 31 42 bf 58 61 26 3f 16 25 4f 3c
       -0.4318725 -0.7585644 0.64992285 0.012643119
0000e0 c2 62 e8 3e 71 7c e9 bf 53 5c 2a bd f6 3b 92 bf
       0.45387846 -1.8241102 -0.041591953 -1.1424549
0000f0 84 c1 19 be ac 22 d2 bc c9 2f 6f bf 92 2b f8 be
       -0.15015227 -0.025651298 -0.9343229 -0.48470742
000100 73 ed a5 3e 1d 7b 20 bf 3b b9 38 bd d0 a0 92 3f
       0.32407722 -0.62687856 -0.045098525 1.1455326
000110 ba db 8e bf 28 bd 12 3f f1 a4 fe bb 89 32 c6 bd
       -1.1160805 0.5731988 -0.0077711274 -0.096776076
000120 3a 97 cf be ea 5a f5 bc 08 79 9d 3f 5b 8b 87 bd
       -0.40545064 -0.029950578 1.2302561 -0.06618377
000130 c7 f9 67 3f 9a 2d 51 c0 e9 1e 57 3f 15 d0 d9 be
       0.90615505 -3.2684083 0.8403154 -0.42541566
000140 5a f3 78 c0 4b 59 25 40 d6 bc 5c 3f 01 f6 da 3d
       -3.889853 2.583575 0.8622564 0.10691453
000150 83 0e 9c 3d 29 d9 3a 3f 0b bd a3 be 42 9d bc be
       0.076199554 0.7298761 -0.31980166 -0.36838728
000160 e4 dd ff 3c 8c d4 e9 bf 27 af 0e bf 70 5d 32 3f
       0.031233735 -1.8267989 -0.5573601 0.69673824
000170 82 36 22 be 0b ad 4c 3f a7 90 a6 bf 82 3b 23 3f
       -0.15841106 0.7995154 -1.3012894 0.63762677
000180 7e fb cc bd df 18 7e be 87 67 16 bd 49 e7 4b 3f
       -0.10008906 -0.24814175 -0.036719825 0.7964979
000190 50 de f2 bd a8 12 60 bf ac cf 9e bf d7 e5 70 bf
       -0.11858809 -0.8752847 -1.2407126 -0.9410071
0001a0 4a f5 ec bb 93 df 8f 3e 42 3e e5 3f f0 0b 56 bf
       -0.007231389 0.2810026 1.7909625 -0.83611965
0001b0 25 d5 0b 3f f5 57 5b bf 39 62 13 c0 0c 6c 64 3b
       0.5462211 -0.85681087 -2.30287 0.003485444
0001c0 89 67 68 3e e6 bc 7a 3f cb 0b 1b 3f 88 7f 90 3e
       0.22695746 0.97944486 0.6056487 0.282223
0001d0 ea a5 ad bd cc 32 21 be c7 dc f5 3c 84 72 d9 3c
       -0.08478911 -0.15742034 0.030012501 0.026543863
0001e0 26 4e a4 be 7d a8 4d 3f 88 d6 4b bf eb bd ea bf
       -0.32090873 0.8033522 -0.79624224 -1.8339208
0001f0 13 63 98 bf 5f 3b 2b bd 46 3a 18 c0 6f 52 23 3e
       -1.1905235 -0.041804668 -2.3785567 0.15949415
000200 72 81 33 3c b3 20 38 c0 6c 0f b5 bf 4d 7c 8a 3f
       0.010956155 -2.8769958 -1.4145331 1.0819184
000210 63 3a 09 c0 24 98 f1 3d da cf bf 3c c1 ab 3e 3e
       -2.1441886 0.11796597 0.023414541 0.18620206
000220 2f e1 45 3f cf 2a 03 bf 0e df 08 3e 51 39 d8 3f
       0.7729673 -0.51237196 0.13366339 1.6892492
000230 55 7f 00 40 82 d5 93 bd 4a 4d a4 bf 55 ea 37 c0
       2.0077717 -0.07218458 -1.2836087 -2.8736775
000240 b2 f5 20 bf e0 d3 00 3e 90 3e 3f bc 21 53 c5 3e
       -0.628749 0.12580824 -0.011672631 0.38539985
000250 43 4b af 3e 53 64 12 c0 ab 05 09 bd 88 c0 14 bf
       0.34237108 -2.2873733 -0.03345267 -0.5810628
000260 a6 5a 26 bf 41 8f 91 bd b5 8b 1c c0 7c 7b c1 be
       -0.6498207 -0.07107402 -2.446027 -0.37789524
000270 ae d0 f3 3f 68 0d 54 3f 2a 93 1f 3f 5c b2 35 bf
       1.9048059 0.82832956 0.6233393 -0.7097528
000280 52 db 12 bf a9 f6 41 3d 03 3e 36 bf fe df 16 3f
       -0.57365906 0.047354374 -0.7118837 0.58935535
000290 a4 30 33 3e d3 27 eb bf 2f 7f 65 3d 28 da 01 3f
       0.17499024 -1.8371528 0.056029495 0.50723505
0002a0 5f d2 1e c0 89 ec 62 3f b5 11 d1 3f be 9d 68 bf
       -2.48159 0.88642174 1.6333529 -0.90865695
0002b0 93 87 3e c0 a6 40 23 3f 44 4b 1f bf e0 c3 03 3c
       -2.9770248 0.6377052 -0.6222422 0.008042306
0002c0 05 de 8c 3e 1f c5 30 be d5 e1 91 c0 83 4f ac be
       0.27513137 -0.17262696 -4.5588174 -0.33654413
0002d0 b5 b8 5a be 95 c4 17 3f 65 6d 24 3f 08 2a bf 3d
       -0.21359523 0.59284335 0.6422942 0.09334189
0002e0 43 c1 0a bd cb 08 2d bf 08 23 29 3f 22 15 03 bf
       -0.033875715 -0.6759154 0.6606908 -0.5120412
0002f0 ac 73 67 3c b7 ca 1d c0 b8 39 b7 bf 17 ad 02 3f
       0.014126699 -2.4654977 -1.4314489 0.51045364
000300 0f 3a 42 bf c5 ce d2 bd 40 65 47 3f 4b 32 62 3e
       -0.7586984 -0.102933444 0.7788887 0.22089498
000310 84 f6 b7 3d 7b 68 08 bf f6 e8 35 3e a9 ab 81 bf
       0.08982566 -0.53284425 0.17764649 -1.0130512

fc3.bias f4 [4]
000000 83 e2 8d be 09 0a 3b bf a6 e4 f1 be a4 b9 aa bd
       -0.27711877 -0.7306219 -0.47244757 -0.083361894
