Tables/DQN.pt (torch, 10967 bytes, 6 tensors)

fc1.weight f4 [32, 12]
000000 39 96 22 3f 7d 06 a1 3e 62 28 fc 3e b0 c6 e6 3f
       0.6351047 0.31450263 0.4924956 1.8029385
000010 95 1e 5b 3f 18 a6 06 3f c3 1d 54 bf c3 11 9c be
       0.8559354 0.5259719 -0.8285791 -0.304823
000020 33 a1 09 bf a4 2d 82 3e c5 82 ad bf 7a 2f d7 3f
       -0.53761595 0.25425446 -1.3555533 1.6811364
000030 f3 38 67 3e ce 65 d5 bf 0c 2b 0a 3f ca 9d f0 3d
       0.22580318 -1.6671693 0.53971934 0.11748846
000040 04 26 78 3e 8e 1b 83 3e 56 30 80 bf 9e f9 5d bf
       0.24233252 0.2560696 -1.0014751 -0.8670901
000050 ca 20 f1 bf c3 1a ff 3d cf 2b 4b 3f 29 6a b2 3f
       -1.8838131 0.12456276 0.7936372 1.3938648
000060 b8 fa 7c 3f 3b 12 64 be 60 95 ea 3f 5a 96 be 3f
       0.98820066 -0.2227258 1.8326836 1.4889634
000070 6b f7 d6 3e 34 c8 ac 3e eb a3 93 bf 52 2c f5 3e
       0.4198564 0.33746493 -1.1534399 0.47885376
000080 6e 83 da 3f 21 41 53 c0 3b 59 76 bf 7d 6b 05 c0
       1.7071359 -3.3008502 -0.96229905 -2.0846856
000090 a1 8b 6b 3f a6 e9 43 3f a5 b7 49 bd 17 1c ee 3e
       0.9200993 0.76528394 -0.049247403 0.46505806
0000a0 fc 57 c7 bf b2 4a 53 bf a3 81 0e 3e 4c 01 4b bf
       -1.5573726 -0.8253585 0.1391664 -0.79298854
0000b0 c4 4f 8d bf c6 d9 17 40 9b 61 2a 3d db 51 40 3e
       -1.1039968 2.3726668 0.04159699 0.18781225
0000c0 36 fe 9a 3f ca 4e 05 3f 35 1f e4 bf 81 f4 46 be
       1.2108829 0.5207335 -1.7822024 -0.19429208
0000d0 25 e9 c6 bf f0 77 95 be 83 f2 a3 3f 50 f5 36 bd
       -1.55399 -0.29193068 1.2808384 -0.044667542
0000e0 d8 78 a8 3f 63 59 31 3f f1 92 50 3f 3a 43 95 bf
       1.3161879 0.6927702 0.81474215 -1.1661141
0000f0 f8 cd 43 3f b2 73 b9 bf f4 d1 1a 3f 68 ec 47 c0
       0.7648616 -1.4488432 0.60476613 -3.123804
000100 63 a0 75 3f 2d 2c c2 bf a9 07 74 bf ed e7 e2 be
       0.95947856 -1.5169731 -0.9532419 -0.4431757
000110 ed 8f 18 bf d4 c5 88 3f b0 aa aa bf 0a 92 02 40
       -0.59594613 1.0685372 -1.333334 2.0401635
000120 99 ad 1c c0 bf ad b9 bf 9d 3b c1 3e 51 cd b8 3f
       -2.4480956 -1.4506148 0.37740794 1.4437658
000130 60 8e 85 3f 6d 22 d6 bf 7c d8 ba bd 5c 94 2d c0
       1.0434074 -1.6729256 -0.09123322 -2.7121801
000140 1d c6 01 c0 06 ba a0 3f 05 1a ec bf 74 43 88 bf
       -2.0277169 1.255677 -1.844544 -1.0645585
000150 71 4b 5c 3f f8 0a 9e bf cd cd cc 3f 4e 29 ef 3e
       0.86052614 -1.2347097 1.6000305 0.467112
000160 07 47 b4 be 3c 03 fe 3e 92 5f 4b 3f 55 bb 77 bf
       -0.3521044 0.49611843 0.79442704 -0.9677022
000170 0c 20 7b 3f ad eb b6 bf 7a 3a 02 bf 00 51 5a 3e
       0.98095775 -1.4290673 -0.5087048 0.21319962
000180 de 0e 98 be 68 4d fe be 74 df d7 3d a8 0a 17 c0
       -0.29698843 -0.4966843 0.10540667 -2.3600254
000190 40 f9 62 bd 45 e9 2c 3c 8c 6f ac bf 35 39 96 3f
       -0.055413485 0.010553663 -1.3471541 1.1736208
0001a0 2b ad 13 c0 84 a8 c1 be 3d eb bb be 10 56 78 3f
       -2.3074443 -0.3782388 -0.3670291 0.9700632
0001b0 7c 15 4f bf c3 b1 ad bf 74 be 6d bf 26 0b d3 3c
       -0.8089216 -1.3569874 -0.92868733 0.025762152
0001c0 e2 50 63 3f c9 d8 24 3e b8 9e 10 c0 5d 6d 96 3f
       0.8879529 0.16098322 -2.2596874 1.1752125
0001d0 48 90 9c 3f 09 b8 2c 3f be 5e d9 bd fc ad fb 3d
       1.2231531 0.67468315 -0.10613774 0.12289044
0001e0 1a a5 58 bf d1 13 e1 3f b8 48 88 bf d8 24 34 3f
       -0.84626925 1.7584172 -1.0647192 0.7036872
0001f0 af d3 a5 be c4 1e 87 3f 74 b1 c8 be 89 9a d8 3f
       -0.32388064 1.0556264 -0.39197886 1.692216
000200 6d 45 d7 bf b8 d5 5e 3f 8e 1f 0b bf 2b 76 2e bf
       -1.6818062 0.8704486 -0.54345024 -0.6814906
000210 d3 a6 64 3f 3d 7c 0c 3e b5 38 b4 bb e8 c7 df 3d
       0.89317054 0.13719268 -0.005499924 0.10926801
000220 21 db c0 3f 13 40 04 bf 8c 8b 69 be 99 c5 d9 be
       1.5066873 -0.5166027 -0.22807139 -0.42533568
000230 cb 89 90 3f 59 b5 2f 3f f8 38 5d bf 1c 89 16 bf
       1.1292051 0.6863609 -0.8641505 -0.5880296
000240 b4 22 1b 40 5f 06 76 3f 54 b6 78 3f ed 49 c4 3f
       2.423993 0.9610347 0.9715321 1.533506
000250 3b 62 55 be 36 02 a9 bf 1e 2b a2 3c 28 5e eb 3d
       -0.20838253 -1.32038 0.01979595 0.11492568
000260 b1 01 d3 bf 8e 25 a8 3f af 07 5f bf 0a 9a 90 bf
       -1.6484891 1.3136461 -0.871211 -1.1297009
000270 01 55 95 3f e2 dd 97 bc 8b 74 56 3f 67 5d 1f c0
       1.1666566 -0.01853842 0.8377158 -2.4900758
000280 f3 5d 34 bf 3b a1 7e bf b2 a5 b2 3e 8d da b0 bf
       -0.70455855 -0.9946477 0.3489204 -1.3816696
000290 ea fd 5c bf d9 65 ea be 72 fc f2 3f 7e 5d 0b 3d
       -0.8632494 -0.4578083 1.898329 0.034024708
0002a0 79 91 96 3d 8b e5 b7 3f a8 7c f0 bb 72 ea 08 3f
       0.073519655 1.4366926 -0.007339079 0.53482735
0002b0 5b e4 47 be f1 97 aa bf 61 8e e4 bf a5 3b 13 be
       -0.19520704 -1.3327619 -1.785595 -0.14378221
0002c0 af 63 67 3d d4 07 9f 3e cb 5e 96 3f 30 2e f7 bd
       0.05649155 0.3106066 1.1747679 -0.120693564
0002d0 7e 11 a6 bf ca c3 e1 bf e5 2f e2 be 8a 3a 4c 3f
       -1.2974088 -1.7637875 -0.44177166 0.79776824
0002e0 41 9c 15 3f 76 7b 3b 3f 7c 27 3c bf ef 03 86 bf
       0.5844155 0.7323526 -0.7349775 -1.046995
0002f0 ab 90 a1 3f 5b 5e a4 3f ae d0 e1 3f 77 06 6a bf
       1.2622274 1.2841295 1.7641809 -0.91416115
000300 50 70 72 be 62 0d dc bd 82 85 5f be d9 1b da bd
       -0.23675656 -0.1074474 -0.21828273 -0.10649843
000310 89 a7 1e be 08 89 fe bd 1f b0 d9 bd f1 6e 00 be
       -0.15493597 -0.124284804 -0.106292956 -0.12542321
000320 13 82 18 be 00 92 88 bb f7 8b c2 3c 3e 47 91 bd
       -0.1489337 -0.004167795 0.023748381 -0.070936665
000330 df 38 0d 40 fb d1 5a 3f ce 90 15 3d f5 42 28 3f
       2.2065961 0.85476655 0.03651505 0.6572717
000340 db af 8e 3c 37 cd 89 bd cd 98 99 3f 0a 79 68 3f
       0.017417839 -0.06728595 1.1999756 0.9080969
000350 28 0e 95 bf ec 77 39 bf b5 d1 66 3f bb 7c 64 c0
       -1.1644945 -0.7244861 0.9016374 -3.570113
000360 92 8d ab 3f 4d 9c d7 bf e8 b8 a0 3f 7e 64 a7 3f
       1.3402579 -1.6844574 1.2556429 1.3077543
000370 a8 2a be bf 46 55 22 bf 3b ce 11 3f 0c e5 7d bf
       -1.4856768 -0.63411367 0.5695531 -0.9917762
000380 e7 69 b6 bf 80 f5 86 bd ee da bf bf 55 18 b0 be
       -1.4251069 -0.06589794 -1.4988687 -0.34393564
000390 45 4a 9b 3f e7 94 39 3f 00 d8 a3 3e 4d 55 0c 40
       1.213204 0.7249283 0.32000732 2.1927063
0003a0 85 a4 88 3e ea 40 a3 3c d2 b9 3b bf fd 1d 34 be
       0.26688018 0.019928414 -0.73330414 -0.17589565
0003b0 75 f4 25 3f a6 0e b9 bf 8d 04 8e be bc a4 d0 bb
       0.64826137 -1.4457595 -0.27737847 -0.006367294
0003c0 bd 93 01 3e a4 aa 5e 3f 1f 62 2b 40 dc 7c b9 3e
       0.12654014 0.86979127 2.6778638 0.36228073
0003d0 68 91 da 3e ca dd d0 3f 17 1b f5 be 58 ba 4c bf
       0.4268906 1.6317685 -0.4787223 -0.7997184
0003e0 36 35 9a bf 7c 0a 83 bf 97 0e b6 3f 88 2a b6 bf
       -1.2047489 -1.0237575 1.4223202 -1.423173
0003f0 0f a5 44 be d1 e4 4c 3e e7 b1 11 3d 64 95 9c 3f
       -0.1920359 0.20009162 0.03557005 1.223309

fc1.bias f4 [32]
000000 85 b6 80 bd a6 72 d6 be 7c 91 06 3f 9c b3 5a bf
       -0.06284813 -0.41884345 0.5256574 -0.8543031
000010 51 7b 41 3d 76 90 43 be ec 02 9e 3c c3 9c 4b bf
       0.047236744 -0.19098076 0.019288503 -0.79536074
000020 00 2c 7b be 5f 4d 32 bf 3b 8d 0d bf a2 d7 16 3f
       -0.24528503 -0.6964931 -0.55293626 0.5892278
000030 69 17 d7 3e 72 63 7d be d5 cd c3 bd 5a dc 1d bf
       0.42010048 -0.24744967 -0.09560744 -0.61664355
000040 5e 66 0d 3e fe bc 12 3e b7 b9 13 3f b4 89 fc 3e
       0.13808581 0.14329907 0.57705253 0.4932381
000050 02 0c 2e 3f 52 8b 19 3f 9e 3e 07 3f 44 d7 53 bd
       0.6798707 0.5997821 0.5282992 -0.051718965
000060 f6 06 0a 3d da b1 87 bf 0a a8 9a 3e dd 33 27 bf
       0.033698045 -1.0601151 0.3020633 -0.6531351
000070 6d 05 4a bf 25 a8 98 bb 80 23 98 3e 8a ce c2 3e
       -0.7891453 -0.0046587163 0.29714584 0.38048202

fc2.weight f4 [50, 32]
000000 c5 4f bf bf 38 78 50 bf a5 86 a0 3f 1c d3 40 3f
       -1.4946219 -0.8143344 1.254109 0.7532213
000010 e5 7c 7f 3f 96 6a 66 c0 e9 b1 00 c0 12 5b ca 3f
       0.9979995 -3.6002555 -2.0108588 1.5809042
000020 93 86 d3 3d b7 fd 99 3e 6f 1b 3b bf 57 88 99 3e
       0.10328402 0.30076382 -0.73088735 0.29986832
000030 6b 06 1e be cb a7 1d 3f 44 ff 31 3f 41 9c a9 be
       -0.15432136 0.61584157 0.6953013 -0.33127025
000040 d2 9c d9 3d 69 9b a1 bf dd 87 4c c0 d4 22 8a 3f
       0.10625614 -1.2625552 -3.1957924 1.0791879
000050 00 21 8a 3e d8 92 8e bd d8 c2 cf bf c8 8f fc 3e
       0.26978302 -0.06961602 -1.6231337 0.49328446
000060 8b 16 6a be 31 45 3a 3f 62 b1 62 3f 90 b3 68 3e
       -0.22860162 0.7276183 0.88551915 0.22724748
000070 e9 a8 c9 3f ca ae c5 bd 49 a1 d1 3e c3 4a 5a 3f
       1.5754672 -0.09652479 0.40943363 0.8527033
000080 ba 06 22 c0 2f 62 ab bf dd 09 6c bf ef 8c 39 c0
       -2.5316606 -1.3389338 -0.9220255 -2.899227
000090 8b 12 e9 3f 2c cc 08 c0 e3 6a 21 be e1 70 ba be
       1.8208784 -2.1374617 -0.1576343 -0.36414245
0000a0 84 89 7b bf 53 12 d5 3e 97 dc 46 c0 69 48 a9 3f
       -0.9825671 0.41615543 -3.1072137 1.3225223
0000b0 a1 ac de c0 6e da 42 3f 25 45 85 bf 99 a1 8c 3f
       -6.958573 0.7611455 -1.0411726 1.0986816
0000c0 08 de 52 bd 0b ef a4 bf 10 69 1c c0 e0 e9 03 bf
       -0.051481277 -1.288545 -2.4439125 -0.5152874
0000d0 7e c0 4d c0 90 ae 56 3f 0a 50 7a c0 c7 83 40 3f
       -3.2148738 0.8386011 -3.9111352 0.75201076
0000e0 d9 50 60 bf 34 a5 9f 3f 63 de e3 bf d0 6e 47 3f
       -0.87623364 1.2472291 -1.7802242 0.7790346
0000f0 8c 1b 57 bf bd fd aa 3f 9e 7e b8 3e 88 d4 62 3e
       -0.8402641 1.3358685 0.360341 0.22151387
000100 5d 77 7b 3e d0 73 57 3f ff 4c 5f bf 73 b1 32 bf
       0.24557252 0.8416109 -0.8722686 -0.69802016
000110 c1 08 0c 3d 4a a4 dc bd 96 1f 43 40 ab 1e cb 3e
       0.034188036 -0.10773523 3.0488029 0.39671835
000120 bd d7 3e bf c0 b9 1f bf 51 85 ac bf c1 80 19 bf
       -0.7454794 -0.62392807 -1.3478185 -0.5996209
000130 67 4f 2e bf ac c1 91 3e f8 72 91 bf 91 c1 10 40
       -0.6808991 0.28468072 -1.1363211 2.2618144
000140 0b 79 1f be 60 85 e0 bf 63 84 01 40 b4 ff b9 bd
       -0.15573518 -1.7540703 2.0237052 -0.090819746
000150 d1 8e a6 3e 15 9b 6a be e7 b2 d9 be c2 41 15 40
       0.32530835 -0.22910722 -0.42519304 2.3321385
000160 9a de 9f bf e4 de 58 3c 33 0b cf bd a1 ca df 3f
       -1.2489808 0.013236735 -0.10109558 1.7483712
000170 78 99 6d bf 88 6b 93 3b 9e c1 c1 3e d6 a0 42 3f
       -0.928123 0.0044989027 0.3784303 0.76026666
000180 c6 12 82 c0 38 63 f5 3d 61 a2 17 c0 83 c9 a2 3e
       -4.0647917 0.11981815 -2.3692858 0.31794366
000190 b3 66 8b bc a9 68 57 bf 28 3b 91 3e 23 a2 54 3e
       -0.017016744 -0.84144074 0.28365445 0.20764975
0001a0 81 4a 21 c0 bf d9 ef be 96 e0 ce bf 18 c4 57 bf
       -2.5201724 -0.46845815 -1.6162288 -0.8428359
0001b0 a1 a9 64 c0 df c3 b4 be 91 d0 8f 3e 6b 23 80 3f
       -3.5728533 -0.35305688 0.2808881 1.0010809
0001c0 e9 0f 15 3e 92 61 9c c0 3a cf d6 bf 55 35 52 c0
       0.1455685 -4.8869104 -1.678199 -3.2845051
0001d0 64 86 1a c0 fb 09 a2 bf 25 a9 23 c0 b2 44 ac 3d
       -2.4144526 -1.2659296 -2.5571988 0.0841154
0001e0 10 2f 8a bf c7 42 08 be 7c c5 15 bf 92 77 43 bf
       -1.0795612 -0.13306724 -0.5850446 -0.76354325
0001f0 83 6b ba bf d0 0f 9b 3e 5c 69 77 bf 95 98 b8 bf
       -1.456406 0.302855 -0.9664514 -1.4421564
000200 f7 18 b5 3e 41 ef 0c 3e 0b e5 2b c0 df dc 01 bd
       0.3537061 0.13763143 -2.6858547 -0.03170478
000210 96 33 35 3f 8b 3f 53 3c e1 08 08 c0 b9 82 cd 3f
       0.7078184 0.012893568 -2.125542 1.6055518
000220 cd db b0 3f 1a 7f 92 3f f2 12 e3 3f 4a f5 0d bf
       1.3817078 1.1445038 1.7740157 -0.55452406
000230 9f 10 3f bf 00 78 b3 bf 52 f3 51 3d ef 9c 10 be
       -0.74634737 -1.4020996 0.05125744 -0.14122365
000240 27 b9 34 be af 4c 7e bf 58 eb a3 3e 6b 96 9d 3e
       -0.17648755 -0.9933576 0.3201549 0.30778822
000250 7e 24 46 bf 94 89 9f be 86 2f 0d bf 92 99 92 3f
       -0.7739943 -0.3115965 -0.5515064 1.1453116
000260 f8 92 49 bd f6 7c a9 3e 70 96 22 bf b7 cb 8a c0
       -0.049212426 0.3310315 -0.635108 -4.3373675
000270 1f b4 1b 40 c5 46 92 3e 0d a6 b1 bf da b8 93 bf
       2.4328687 0.28569618 -1.38788 -1.1540787
000280 4e e8 77 3c 07 92 ce be f6 ba b4 3e 37 06 ea 3f
       0.015131069 -0.40345785 0.3529889 1.8283147
000290 28 fd a6 3e e9 5d 9c be 9c 6d 72 3f d7 14 e0 3e
       0.32615018 -0.30540398 0.946985 0.437659
0002a0 2e 32 97 be fe 51 8c 3e 44 ef 9b 3f e4 52 67 3f
       -0.29530472 0.27406305 1.2182393 0.90360856
0002b0 77 b4 b4 3f 0f e8 9b bd 9b 07 af 3e 69 e1 d2 bf
       1.4117573 -0.07612621 0.3418549 -1.647504
0002c0 32 c3 da 3c 80 da aa 3f 29 33 0b 3f ca 91 90 be
       0.026704405 1.3347931 0.5437494 -0.28236228
0002d0 ac ff 5e 3f 0c 9a af bb 10 cb 95 3f 59 f6 1e 3f
       0.87108874 -0.00535894 1.1702595 0.62094647
0002e0 b7 8a 86 3e 74 33 22 bb af c7 02 3f 74 4b 39 bf
       0.26277706 -0.0024749907 0.51085943 -0.7238076
0002f0 65 2a 90 3f 9f 5e 97 bf 5a 47 dc 3f b2 47 ac 3f
       1.1262938 -1.1825751 1.7209275 1.345938
000300 83 8e c1 bd 6a 9a c9 3f 14 e0 af bf fe 71 7a 3f
       -0.0945101 1.5750248 -1.3740258 0.9783019
000310 df 52 ec be 99 66 a1 3f 18 e9 a8 3f ff 16 8c 3f
       -0.46156976 1.2609435 1.3196135 1.0944518
000320 eb 24 a4 3f 0d ff 26 3f ad 58 bd bc 37 30 54 3f
       1.2823766 0.65232927 -0.023113573 0.8288607
000330 6b 88 81 be 5b e9 fc 3f 01 27 88 3f b8 2c 70 3f
       -0.2529939 1.9758714 1.0636903 0.93818235
000340 5e 44 ea 3d e2 17 96 bf 17 ea 54 3f b5 bf de be
       0.11438821 -1.1726038 0.8316969 -0.43505636
000350 c1 e5 a0 bf ae 79 ba 3e 43 cd 25 be 19 07 58 3f
       -1.2570115 0.3642096 -0.16191582 0.8438583
000360 35 6a 42 3d 84 34 f0 3f 20 dc 7e 3f 36 fe 74 3f
       0.04746457 1.8766026 0.99554634 0.95700395
000370 3e 12 30 bf 09 0a 42 40 e1 bb 87 be 5e 06 40 bf
       -0.68777835 3.0318625 -0.26510528 -0.75009716
000380 10 58 1b be 4d e8 9e 3f 4b 21 22 bf 3e 5d 92 be
       -0.15170312 1.2414643 -0.6333205 -0.28586763
000390 77 5f 54 3f c3 61 35 3f 75 b0 15 c0 d5 5a 0f bf
       0.8295817 0.708523 -2.338895 -0.55997974
0003a0 5e e7 9e be 39 bd 52 bf 34 16 23 3f 4b f4 00 bf
       -0.31035894 -0.8231998 0.63705754 -0.5037276
0003b0 81 dd 88 3d 31 da a8 3f d0 86 81 3f 63 5b de 3f
       0.066828735 1.3191587 1.0119267 1.7371639
0003c0 1a d0 34 be fa 86 32 be b0 6c 68 3e be 8e be 3f
       -0.1765751 -0.17434302 0.22697711 1.4887311
0003d0 00 6a 84 3f d8 2c ef bd dc a5 c9 be a3 3f 9b bf
       1.0344849 -0.11678475 -0.39384353 -1.2128795
0003e0 da 34 8b 3f 27 bf 00 bf 5f c7 36 bf c2 5f c2 3f
       1.0875504 -0.50291675 -0.71397966 1.5185473
0003f0 31 b5 f4 3e b4 7f fe 3d 91 bf ca bf 23 3c d0 bf
       0.47794488 0.12426701 -1.5839711 -1.6268352

fc2.bias f4 [50]
000000 bc 07 0b bf 59 20 97 3f e0 22 2d bf e9 04 de be
       -0.54308677 1.1806747 -0.6763134 -0.4336312
000010 85 e1 06 bf 12 dc 2f bd 10 52 a4 3f 5d 71 29 bf
       -0.52687865 -0.042934485 1.2837543 -0.66188604
000020 b2 d8 85 be 95 6b 22 be ae d8 fb be 44 bb 4b bf
       -0.26141888 -0.15861352 -0.4918875 -0.7958262
000030 2f 1b 0a bf f9 d3 42 3e 4c e5 87 3c e8 8c 97 be
       -0.5394773 0.19026174 0.01658883 -0.2959969
000040 08 f9 ca be 70 78 5a 3e 17 a9 e2 3e 06 b9 d5 3e
       -0.3964312 0.21335006 0.4426963 0.41742724
000050 60 51 cf bd ab dd b1 be 69 4f c0 be 53 48 6a be
       -0.10122943 -0.34739432 -0.37560585 -0.22879152
000060 d8 e9 3f bd 32 98 a4 3e 5f d8 91 be 88 a6 e3 3d
       -0.04685387 0.32147366 -0.2848539 0.11115748
000070 49 6c 09 bf 70 06 71 bf 64 83 e8 3d c5 a3 ea 3d
       -0.53680855 -0.9415045 0.11353186 0.11457018
000080 14 a1 c6 3e f0 61 18 bf 9b 11 ad 3f a2 47 e2 3e
       0.38794768 -0.5952444 1.3520998 0.44195276
000090 6e 2d 02 be 1d 48 60 3d bb 0f 28 bd c3 91 33 be
       -0.12712643 0.054756273 -0.041030627 -0.17536072
0000a0 80 02 1f bf 9f f8 00 bf 95 ff 90 be 69 c1 cf 3f
       -0.6211319 -0.50379366 -0.28319994 1.6230899
0000b0 6e 29 b3 3e 4a 78 10 bd 48 fd ce 3e 15 a2 ff be
       0.34992546 -0.035270967 0.40427613 -0.49928346
0000c0 bd 83 37 be b8 5f 60 be
       -0.17921348 -0.21911514

fc3.weight f4 [4, 50]
000000 4c c8 9f c0 db 92 c3 c0 f9 b4 f4 3f 7d 27 14 c0
       -4.9932003 -6.1116767 1.9117728 -2.3149102
000010 9c 11 97 40 d2 7c 86 3f f4 6c 84 bf b3 f9 a2 3f
       4.7208996 1.0506842 -1.034575 1.2732452
000020 23 33 37 3e 14 10 23 bf f2 d6 0b c0 2f 3c 02 c0
       0.17890601 -0.6369641 -2.1849942 -2.0349233
000030 9b 30 61 bf ff df 9e 3e e8 e9 cd 3d 00 ea 89 3f
       -0.8796479 0.3103027 0.1005438 1.0774536
000040 f5 d0 33 bf 53 1f d9 be eb 30 14 c0 f7 4f 38 bf
       -0.7024072 -0.4240671 -2.3154857 -0.71997017
000050 6b ad e2 3e 21 b2 b4 bf 68 08 63 c0 36 33 62 be
       0.44272932 -1.4116861 -3.547388 -0.22089848
000060 61 9b 5c 3d 7f 99 b8 c0 a0 ac e6 3f b6 5f 5c 3f
       0.05385912 -5.7687373 1.8021431 0.86083543
000070 d3 93 19 c0 fe 70 36 c0 4e 2b cd 3e 50 0a b9 bf
       -2.3996475 -2.8506465 0.400721 -1.4456272
000080 e5 c4 ec c0 ce 0a 00 40 64 34 98 bf ab b6 e0 be
       -7.399035 2.0006595 -1.1890988 -0.43889365
000090 ac 10 76 3d 8e 2c 84 be 93 c5 07 3f e0 c4 d1 bd
       0.060074493 -0.25815243 0.5303585 -0.10242629
0000a0 92 86 2a c0 d1 28 ef bf c2 fb cc bd 83 2f 27 bd
       -2.6644635 -1.8684331 -0.100089565 -0.040816795
0000b0 45 6e 26 c0 c3 ca a1 3d ab d2 91 be 8b a8 86 3e
       -2.6004803 0.07900002 -0.2848104 0.26300463
0000c0 3e 91 3a bf c4 28 22 3f 46 d5 04 3e b2 c6 2b bf
       -0.7287787 0.63343453 0.12971982 -0.6710006
0000d0 6f 43 80 3f c8 de a5 3d 35 5b f2 3e a2 01 29 3f
       1.0020579 0.08099133 0.4733521 0.66018116
0000e0 ba 31 a4 bf ed 88 9d 3e 9f 5c 3c 3f 6c 10 63 3f
       -1.2827675 0.3076853 0.7357883 0.8869693
0000f0 a3 23 3d 40 df 41 5b 40 ae 31 8b 3f dc df 72 bf
       2.9553 3.4258955 1.0874536 -0.9487283
000100 d1 38 c7 bd 03 d0 f6 3f 3a e7 df 3e 0f 6d 90 3e
       -0.09727634 1.928223 0.437311 0.28208205
000110 ae 9d 85 be 3f 78 12 3f fb ee d0 3f 73 35 1a c0
       -0.26096863 0.5721473 1.6322931 -2.4095123
000120 c4 6f 97 3f a2 28 1c bf 3f 2d 51 bf 16 26 9f bf
       1.1830983 -0.609995 -0.81709665 -1.2433498
000130 96 8a f1 bc 52 03 5c be 38 2d 38 40 f3 44 85 3e
       -0.029485028 -0.21485642 2.87776 0.26029167
000140 e0 7b 7b be f6 15 28 40 95 d4 03 3f 44 0e 3a 3f
       -0.24558973 2.6263404 0.5149625 0.7267802
000150 89 da f7 bf e9 0c 39 bf 73 90 b8 3d 0a d6 61 3f
       -1.9363567 -0.72285324 0.090119265 0.8821722
000160 4e df 0e c0 39 53 d0 3d 59 f1 09 40 42 9d 91 bf
       -2.2323794 0.101721235 2.1553557 -1.1376116
000170 01 32 51 3f e9 b3 f9 c0 d5 48 2d 40 2c 60 4b be
       0.81716925 -7.8032117 2.7075703 -0.19860905
000180 62 dc 16 3c d1 59 f8 3e 52 8e a2 40 00 4e 45 be
       0.009207817 0.48506024 5.079873 -0.19268036
000190 cf 0e fe 3f 17 bd f9 bf db a4 93 3f b0 78 2e bf
       1.9848269 -1.9510831 1.1534685 -0.68152905
0001a0 a7 ab 28 40 20 f2 c7 3f 70 41 94 bf 42 9d 71 c0
       2.6354768 1.5620766 -1.158247 -3.7752233
0001b0 6b 54 dc 3e b9 56 c3 be a1 1e 67 bf bf 8a 87 3f
       0.43033156 -0.38152102 -0.9028111 1.0589217
0001c0 11 d3 de bf 88 fa f5 be 41 48 d4 bd 14 3c 3c c0
       -1.7408162 -0.48042703 -0.10365344 -2.9411669
0001d0 d9 f5 01 c0 ab ce ed be 70 23 82 bf ff 2a 3c be
       -2.0306304 -0.46446738 -1.0167065 -0.18375777
0001e0 7b 9a b2 3c 78 5f 81 be ee 26 8c 3f 1e 24 20 3f
       0.021802178 -0.2526815 1.094938 0.6255511
0001f0 ee d5 06 40 24 08 be be c5 1b a5 bf 68 9c 8b bf
       2.1068072 -0.37115586 -1.28991 -1.0907106
000200 2e eb 43 3f 20 77 95 40 f3 5e a9 be 19 7d f7 be
       0.7653073 4.6707916 -0.33080253 -0.4833763
000210 46 ea 76 3e 99 58 51 3f eb 7d 64 bf b8 e0 22 c0
       0.24112806 0.81775814 -0.89254636 -2.5449657
000220 2e 43 39 3e 14 91 a5 bd bc f5 9b 3f 11 29 14 bd
       0.18092033 -0.08084312 1.2184367 -0.036171976
000230 e3 d2 01 40 28 3b d1 3f e0 43 80 3f 5c 75 20 bf
       2.0284965 1.6346178 1.0020714 -0.62679076
000240 1c c9 c1 3f 42 eb cc 3d 1e bb 8e bf f0 89 27 3f
       1.5139499 0.10005809 -1.1150854 0.6544485
000250 94 50 05 40 6d 71 e0 3f 0c 0c b1 3f 80 db 2d bd
       2.083043 1.7534615 1.3831801 -0.04244566
000260 ba 5c 35 3f 0d 09 04 c0 58 09 83 bf 1e 9e 63 3f
       0.70844615 -2.0630524 -1.0237226 0.8891314
000270 49 84 ca bf 49 5d 0a 3f 5d 89 16 bf 73 ea 92 3f
       -1.582162 0.5404859 -0.5880335 1.1477798
000280 21 bf 2a bd 73 57 2f c0 02 16 7a 3e f7 81 90 3e
       -0.04168618 -2.7397125 0.24422458 0.28224155
000290 48 30 31 3d 93 80 f4 3e a2 09 b6 be 12 7f 0c 3f
       0.043258935 0.47754344 -0.35554224 0.54881394
0002a0 d2 b9 df bf aa d7 a8 3e 5b 21 53 c0 af eb 14 40
       -1.7478583 0.3297704 -3.2989109 2.326885
0002b0 99 2e c3 3f 99 5f 51 bf 05 82 ef 3f 7f e4 16 bf
       1.5248595 -0.81786495 1.8711554 -0.5894241
0002c0 eb 31 06 3f 09 ec f8 be 97 20 9e bf 07 43 4a 40
       0.5241992 -0.4861758 -1.2353696 3.160341
0002d0 46 1c f0 c0 a3 57 53 c0 2c 80 34 3c 00 94 a4 3e
       -7.5034513 -3.302224 0.011016887 0.32144165
0002e0 53 8e 0a c0 91 e2 da be 33 24 43 bd 88 9e 04 3e
       -2.1649368 -0.4275098 -0.047641944 0.129511
0002f0 d0 65 0d bd 1f df ee 3c ac 96 aa 3f de 19 98 40
       -0.034520924 0.029159127 1.3327231 4.7531576
000300 a9 e2 b1 be d7 f8 88 3e a8 b9 2a c0 96 f4 dd bd
       -0.3474324 0.2675235 -2.6675816 -0.10837667
000310 b5 58 67 3f 7d 67 8c bf 36 e7 52 40 21 c5 d6 3d
       0.9036973 -1.0969082 3.295362 0.10486818

fc3.bias f4 [4]
000000 8f a1 b2 be 62 1d 11 bf 46 08 8b bf 5f 97 18 bf
       -0.34888884 -0.5668546 -1.08619 -0.59605974
